diabetes_modified.csvmodel2.tflite (tflite, 30072 bytes, 7 tensors)

arith.constant f4 [1, 32]
0	0xbed9f11e	-0.4256677
1	0xbe08d1d9	-0.133613
2	0x3f030cd7	0.5119147
3	0xbeb11805	-0.34588638
4	0x3e5678d2	0.20944527
5	0xbf52871a	-0.822374
6	0xbee1ab70	-0.4407611
7	0x3f1bbb1c	0.6083238
8	0x3f82d0af	1.0219935
9	0xbf387d29	-0.7206598
10	0xbf6b0251	-0.9180041
11	0xbf13f3f5	-0.57794124
12	0xbe14a06c	-0.14514321
13	0x3f15db25	0.58537513
14	0x3d056860	0.032570243
15	0xbde8e995	-0.11372677
16	0x3f75099a	0.95717776
17	0xbef9f999	-0.4882324
18	0xbf6a5861	-0.91541106
19	0x3e6ed7b3	0.2332447
20	0xbdad75eb	-0.08469757
21	0x3d2d13c1	0.042255167
22	0x3d6f8633	0.05847759
23	0xbdb96158	-0.0905177
24	0x3e920dc7	0.28526136
25	0x3f631ad1	0.88712794
26	0x3d973267	0.0738266
27	0xbeba357e	-0.36368936
28	0x3f4e664c	0.8062484
29	0x3edf63f1	0.43630937
30	0x3ee9f0e9	0.45691612
31	0x3e26f1a6	0.16303119

arith.constant2 f4 [32, 64]
0	0xbeb45c58	-0.35226703
1	0x3f85ffad	1.0468651
2	0x3e348213	0.17627744
3	0x3d29fba8	0.041499764
4	0xbe9a4d32	-0.3013702
5	0xbf1fe4de	-0.624586
6	0xbe3a4c92	-0.18193272
7	0x3ebb9dc4	0.36643803
8	0x3f2c34de	0.6726817
9	0xbc1f62ba	-0.009728128
10	0xbea735e9	-0.32658318
11	0x3ef8a1a6	0.48560828
12	0xbdc207db	-0.094741546
13	0xbc9a711b	-0.018852761
14	0x3c6d3370	0.014477596
15	0xbdff4250	-0.1246382
16	0x3f3fd4b3	0.7493393
17	0x3eb9b3c7	0.36269972
18	0x3d8dc923	0.069231294
19	0x3ea90415	0.33010927
20	0xbeb67cc7	-0.35642073
21	0xbe8e08a8	-0.2774098
22	0xbee0909a	-0.43860322
23	0xbf00711a	-0.5017258
24	0x3eb1d7e4	0.34735024
25	0xbefe6cf3	-0.49692497
26	0xbe57c2b4	-0.21070367
27	0x3eb90c1a	0.36142045
28	0xbe60a8ee	-0.21939442
29	0x3f028209	0.5097967
30	0x3d321fb7	0.043487277
31	0xbd796561	-0.060887698
32	0x3df8196e	0.12114225
33	0x3f208333	0.62700194
34	0x3e9a6a16	0.30159062
35	0xbe0e9f1b	-0.13927881
36	0xbf1374bc	-0.576
37	0xbee4dd08	-0.44699883
38	0x3eaf5fb6	0.3425271
39	0xbf280e4b	-0.6564681
40	0xbe4f6ca9	-0.20256294
41	0xbd609a11	-0.05483443
42	0x3e0e20dd	0.13879724
43	0x3e6632c1	0.22480299
44	0x3e9fe660	0.3123045
45	0x3f6de4f6	0.9292749
46	0xbe9d7c8a	-0.30759078
47	0xbeafac7c	-0.34311283
48	0x3df3ffbc	0.11914012
49	0xbe86e6be	-0.26347917
50	0xbea0c9e7	-0.3140404
51	0xbe254ff3	-0.1614378
52	0xbe72c678	-0.23708522
53	0xbe6be86f	-0.23037885
54	0x3ef02057	0.46899673
55	0x3d6647d6	0.05622085
56	0xbf90247d	-1.1261135
57	0xbeedabaa	-0.46420032
58	0xbe1a1783	-0.15048032
59	0x3e6e38c2	0.23263839
60	0x3e803631	0.25041345
61	0x3efb679e	0.4910249
62	0xbfd26116	-1.6435878
63	0x3e89cb9f	0.26913163
64	0x3f2f1f6e	0.6840733
65	0x3ea13063	0.3148223
66	0x3e584cf1	0.21123101
67	0xbe7be67e	-0.24599645
68	0x3d188898	0.03723964
69	0xbec90bfd	-0.3926696
70	0xbf542def	-0.8288259
71	0x3ecaa065	0.39575496
72	0xbefb1c30	-0.49044943
73	0xbe90f522	-0.28312021
74	0x3d81e578	0.06342596
75	0xbee4bc33	-0.44674835
76	0xbe4fd11c	-0.20294613
77	0x3e935f3a	0.2878359
78	0x3d4d1603	0.05006982
79	0xbdf4d998	-0.11955565
80	0x3f558255	0.83401996
81	0xbeb56fb6	-0.3543679
82	0xbc7eda21	-0.015554936
83	0xbe987932	-0.29779965
84	0x3d3b3d84	0.045712963
85	0x3e31ad76	0.17351326
86	0x3f059330	0.52177715
87	0x3ea3203e	0.31860536
88	0x3ef505a8	0.47855878
89	0xbe7c32eb	-0.24628799
90	0x3f30cb5f	0.6906032
91	0x3e8a6c74	0.27035868
92	0x3e6b0da9	0.2295443
93	0x3e81829d	0.25294963
94	0xbdac81b7	-0.08423179
95	0x3e2abc9b	0.1667351
96	0x3e9bfcb0	0.30466223
97	0x3f08615e	0.5327357
98	0x3e362405	0.17787178
99	0x3ef0eddf	0.4705648
100	0x3e141e68	0.14464724
101	0xbc6d69fd	-0.014490602
102	0xbf054025	-0.52051
103	0xbf197990	-0.59951115
104	0xbd8ea24a	-0.06964548
105	0xbd89bfa3	-0.06726005
106	0xbd80da6b	-0.0629166
107	0xbe1fee70	-0.156183
108	0xbdabecf4	-0.083948046
109	0xbef0f3bc	-0.47060955
110	0x3de0c8b8	0.10975784
111	0x3dbf00fe	0.09326361
112	0xbeb98116	-0.36231297
113	0xbe7de438	-0.2479409
114	0xbe00d894	-0.12582618
115	0x3e89fe05	0.26951614
116	0xbecb63af	-0.3972449
117	0x3b748fa1	0.0037317055
118	0xbe35aca5	-0.1774164
119	0x3ebfe4c5	0.37479225
120	0x3f0a6fa5	0.54076606
121	0xbe2dd129	-0.1697432
122	0x3ea75025	0.32678333
123	0x3f01e834	0.5074494
124	0x3dfd9ea0	0.12383771
125	0xbf29dcf0	-0.6635275
126	0xbfb0f411	-1.3824483
127	0xbe6586bc	-0.22414678
128	0xbec49b22	-0.38399607
129	0xbfd372ec	-1.6519446
130	0x3e80b6e3	0.25139531
131	0x3d8b6361	0.068060644
132	0xbe009f51	-0.12560774
133	0xbf11f13b	-0.57008713
134	0x3f1d1cb6	0.61371934
135	0xbde4a95e	-0.11165117
136	0x3ee7d44f	0.45279166
137	0xbf623f33	-0.88377684
138	0x3d00d7ca	0.031455792
139	0xbeeb9fb4	-0.4602028
140	0xbec9a653	-0.39384708
141	0xbd4d5059	-0.050125454
142	0x3e97fa75	0.2968327
143	0x3e83c707	0.25737783
144	0x3f20aede	0.62766826
145	0xbe51ff7f	-0.2050762
146	0xbd904715	-0.07044808
147	0xbd665883	-0.056236755
148	0xbf387ec3	-0.72068423
149	0xbe725fb7	-0.23669325
150	0x3e89f7c4	0.26946843
151	0xbeae18ed	-0.34003392
152	0xbdfa70d8	-0.122285545
153	0xbdc5974b	-0.096479975
154	0x3d75ef76	0.06004282
155	0x3e115b10	0.14194894
156	0xbe742063	-0.2384048
157	0xbea1d4f6	-0.3160779
158	0xbe690ad7	-0.22758041
159	0x3f0a2175	0.539573
160	0xbec24859	-0.37945822
161	0x3db3265e	0.08747552
162	0x3ed50b02	0.4160996
163	0x3e60ee23	0.21965842
164	0xbf258f2a	-0.64671576
165	0x3cd6955f	0.026194273
166	0xbee4fc1d	-0.44723597
167	0x3ec81b2b	0.39083228
168	0xbdcfb154	-0.101412445
169	0xbef58271	-0.4795108
170	0xbe6e4160	-0.23267126
171	0x3e97fcf5	0.29685178
172	0xbdc5423d	-0.096317746
173	0x3e88fc63	0.26755056
174	0xbf0c5308	-0.54814196
175	0xbf1efdce	-0.62106025
176	0x3ea1c8cf	0.31598517
177	0xbecdaeae	-0.40172333
178	0xbe070f8f	-0.13189529
179	0x3f2f64e3	0.68513316
180	0xbec8237e	-0.39089578
181	0xbedf49f2	-0.43611103
182	0x3ec65c1f	0.38742158
183	0xbf1b4e95	-0.6066678
184	0xbe782425	-0.24232538
185	0xbea4d240	-0.32191658
186	0xbeb324a0	-0.3498888
187	0xbf64cda0	-0.8937626
188	0xbee50a08	-0.44734216
189	0x3f252fbc	0.6452596
190	0xbf9bdfd5	-1.2177683
191	0x3ea37694	0.31926405
192	0xbee56a55	-0.44807687
193	0xbf9506b0	-1.1642666
194	0x3e3e7047	0.18597518
195	0xbdf39c9f	-0.118951075
196	0x3ea77a0d	0.32710305
197	0x3ecc27b7	0.3987405
198	0x3f564767	0.837027
199	0xbcb0242a	-0.02150162
200	0xbf01a861	-0.5064755
201	0xbea3c9ec	-0.31989992
202	0xbda59dff	-0.08086776
203	0x3f2c3b7b	0.6727826
204	0xbeb27482	-0.34854513
205	0x3ea833c2	0.32851988
206	0xbe4483a0	-0.19190836
207	0x3edccd1e	0.43125242
208	0x3f4e0419	0.80475
209	0x3ebdebaa	0.3709386
210	0xbe5b55d7	-0.21419464
211	0x3e50fb03	0.20408253
212	0xbeefcf67	-0.46837923
213	0xbdd52257	-0.104069404
214	0xbde05d3c	-0.10955283
215	0x3dedaa60	0.11604762
216	0x3f100233	0.56253356
217	0x3e963275	0.2933537
218	0xbd89f098	-0.06735343
219	0xbe7e8a53	-0.24857454
220	0xbe4e2e07	-0.20134746
221	0xbcbad624	-0.022807188
222	0x3e8f250b	0.2795795
223	0x3f172f95	0.5905698
224	0x3e5d57be	0.21615502
225	0x3f13156e	0.57454574
226	0xbe81d1de	-0.25355428
227	0xbf05cf9f	-0.5226993
228	0xbf1122a2	-0.5669347
229	0x3f4b0f93	0.7932064
230	0xbe315eef	-0.1732137
231	0xbea35b0b	-0.31905398
232	0x3eb069b6	0.3445565
233	0xbcfbf465	-0.030756185
234	0x3da7f8ee	0.082017764
235	0x3e733d13	0.23753767
236	0x3e982c81	0.29721454
237	0xbf38db57	-0.72209686
238	0x3d62d5f5	0.055379827
239	0xbe818874	-0.25299418
240	0xbeeed5d5	-0.46647516
241	0xbe1bc5a0	-0.15212107
242	0xbedbca27	-0.42927667
243	0xbd81a0cb	-0.06329497
244	0x3dd56250	0.10419142
245	0x3ebbfd32	0.3671661
246	0xbeddb59e	-0.43302625
247	0x3f6a9b76	0.91643465
248	0x3f10cd05	0.56562835
249	0xbca21f71	-0.019790383
250	0xbd559d52	-0.052151985
251	0x3f4a76f4	0.7908776
252	0x3dd2deb2	0.10296382
253	0xbee786b0	-0.45219946
254	0xbfb823c7	-1.4385918
255	0xbeb9043b	-0.3613604

arith.constant3 f4 [32]
0	0xbd7ddbc6	-0.06197717
1	0x3d9f2fd8	0.07772797
2	0x3fed05e8	1.8517427
3	0xbed906b3	-0.42387924
4	0x3dc07d2a	0.09398873
5	0xbdbd7c04	-0.0925217
6	0x3e2ad6f4	0.1668356
7	0xbf80a1a6	-1.0049331
8	0x3f365cae	0.7123517
9	0xbf6f465a	-0.9346672
10	0xbc1cf900	-0.009580851
11	0x3f7aa55d	0.97908574
12	0xbf843504	-1.0328679
13	0x3f8d07ba	1.1017983
14	0x3e82bfe4	0.25537026
15	0x3e08b01f	0.13348435
16	0x3ee6dcbe	0.45090288
17	0xbe0a33ca	-0.13496318
18	0x3e8490f6	0.25891846
19	0xbe95a4a5	-0.29227176
20	0xbf8dd8fd	-1.1081845
21	0x3ec5e06d	0.38647786
22	0xbd47646d	-0.048679758
23	0x3cc2b9dc	0.023770265
24	0x3d24e904	0.040261284
25	0x3f043d0c	0.5165565
26	0x3d1e62ee	0.038668565
27	0xbf4f8620	-0.81064034
28	0x3f4bba2b	0.79580945
29	0x3f5e7b6a	0.86907065
30	0xbfceb51d	-1.6149021
31	0xc0292584	-2.6429148

arith.constant4 f4 [64, 64]
0	0xbc54d03a	-0.012989098
1	0x40b33933	5.6007323
2	0xbbb29537	-0.0054499167
3	0xbc278d44	-0.010226551
4	0xbc5ceb18	-0.013483785
5	0xbc678cab	-0.014132659
6	0x401d4aa3	2.4576805
7	0xc076ccd6	-3.8562522
8	0xbc100594	-0.008790392
9	0x39ed1a40	0.0004522372
10	0xc0491ada	-3.142264
11	0xbe5b1913	-0.21396284
12	0xc0121275	-2.2823765
13	0x3cb55295	0.022134105
14	0xbb67b29f	-0.003535427
15	0xbc5dc101	-0.013534785
16	0xbcd63f02	-0.026153091
17	0x409e2836	4.9424086
18	0x3bbbeb3a	0.0057348283
19	0xbbb63689	-0.0055607003
20	0x3d9f3206	0.07773213
21	0xbbc89114	-0.0061208103
22	0xb9da70d0	-0.00041664252
23	0x3f8e74e3	1.1129421
24	0x4051a430	3.2756462
25	0x4092b901	4.5850835
26	0xbfd26f99	-1.6440307
27	0x40b28402	5.578614
28	0xc086f392	-4.2172327
29	0xbdc8a94d	-0.097979166
30	0xbd15cb88	-0.036571056
31	0x3c8996c4	0.016795523
32	0x3ae53a11	0.0017488619
33	0x3b0e105a	0.0021677227
34	0x407524e3	3.8303764
35	0xc0121c1a	-2.2829652
36	0xc0ae738a	-5.451604
37	0xbf6c19df	-0.92226976
38	0x3eeb5276	0.4596135
39	0x40dd020c	6.9065
40	0x3db52bd9	0.08846254
41	0xbcda938b	-0.026681682
42	0xbbb941f6	-0.005653615
43	0x3ba0e84d	0.004910505
44	0x3c48fd52	0.0122674275
45	0x3c05d733	0.008168983
46	0xbc9f03fc	-0.01941108
47	0x3b1088f2	0.0022054282
48	0x3c2072c7	0.00979299
49	0x3eb4f391	0.35342076
50	0x3c097834	0.008390475
51	0x3c6c3229	0.014416256
52	0x407a7530	3.9134026
53	0x3c3c6d60	0.011500686
54	0x40dcec4c	6.903845
55	0xc0d154b6	-6.5415907
56	0x3f17824e	0.59183204
57	0xbbf9ff6f	-0.007629327
58	0x3c6e45d2	0.014543014
59	0xbc50384c	-0.012708735
60	0xbe0371da	-0.128364
61	0xbae309bd	-0.0017321628
62	0x3cb01de5	0.02149863
63	0xbd1ab600	-0.037771225
64	0xbcdb415f	-0.02676457
65	0x40bce3fc	5.90283
66	0x3bf85ee8	0.007579673
67	0x3b9a61f9	0.0047113863
68	0xbab0bc6a	-0.0013483886
69	0x3ad6cfe5	0.0016388862
70	0x40a6be94	5.210764
71	0x4083cb59	4.1185727
72	0xbb29aff2	-0.0025892225
73	0x3bef86bb	0.0073097623
74	0xbfd429ff	-1.6575316
75	0x3d15ecb2	0.036602683
76	0x408fdcaf	4.495689
77	0xbca0023e	-0.01953232
78	0xbd36ccb8	-0.04462883
79	0xbd5aeecc	-0.05345039
80	0x3ca556ab	0.020182928
81	0xbfce79a5	-1.6130873
82	0xbc010645	-0.00787503
83	0xbb0bf455	-0.002135535
84	0x3dd2992d	0.10283122
85	0xbc088143	-0.0083316
86	0xba13488c	-0.00056184153
87	0xbf6c0b43	-0.92204684
88	0x4063f820	3.5620193
89	0x40962119	4.6915402
90	0x40989e89	4.7693524
91	0x40d7ae29	6.74001
92	0xc0282dbc	-2.6277914
93	0xbc9a0451	-0.018800886
94	0x3d1ef5dd	0.038808692
95	0x3ce89578	0.028391585
96	0x3d03ee1a	0.032209493
97	0xbc34543f	-0.011006414
98	0xbf855c4f	-1.0418795
99	0xc0d97bf8	-6.796383
100	0x3d34a1b3	0.04409952
101	0xc0c0ccee	-6.025016
102	0x3e16867c	0.14699739
103	0x3fc027a8	1.5012102
104	0xbd6edf65	-0.058318514
105	0xbcb8e960	-0.02257222
106	0x3b2eec5f	0.002669118
107	0x3bb0e455	0.005398313
108	0xbc15ccc4	-0.009143058
109	0x3b304419	0.0026896058
110	0x3b8b9037	0.004259135
111	0xbc6bef53	-0.014400321
112	0x3c6d9db6	0.014502933
113	0xbfc5ae21	-1.5443765
114	0xbc3070ed	-0.010769111
115	0xb9e95d32	-0.0004451066
116	0xc0a05cd0	-5.0113297
117	0xbbb90bb9	-0.0056471494
118	0xc049fe91	-3.1561625
119	0x40bd0939	5.907376
120	0xbe476dcc	-0.19475478
121	0x3bb1f3bc	0.0054306667
122	0xbb93d732	-0.0045117373
123	0x3b930bac	0.0044874754
124	0xbd30b3f3	-0.043140363
125	0x3c03e972	0.008051263
126	0x3d09ad90	0.033612788
127	0xbc0d81f5	-0.008636941
128	0xbce4b374	-0.027917601
129	0xc0c06b56	-6.0131025
130	0x3dc99515	0.09842888
131	0xbc84eed7	-0.016227169
132	0x3c0fcc6d	0.008776766
133	0x3c5d3c9b	0.013503219
134	0xc0e4fbe1	-7.155747
135	0xc057c6f8	-3.371519
136	0xbc3543e6	-0.0110635515
137	0x3c1a8140	0.00943023
138	0x409602e5	4.6878533
139	0x3c7c334a	0.015393088
140	0xc0a860a1	-5.2617955
141	0xbc464b71	-0.012102948
142	0xbd458d61	-0.048230533
143	0xbcf5941c	-0.02997785
144	0x3c619ceb	0.013770322
145	0xc0376c3b	-2.8659809
146	0x3baf0001	0.0053405766
147	0xbbbb9789	-0.0057248515
148	0x3db8c3b2	0.09021701
149	0x3c345fa3	0.01100913
150	0x3baad646	0.0052135317
151	0x40a793f5	5.236811
152	0x40292449	2.6428397
153	0x3f36cf7e	0.7141036
154	0xbf7824cb	-0.9693114
155	0x3eea7b99	0.45797423
156	0xc0d3db70	-6.620537
157	0xbdbcec09	-0.09224708
158	0xbb4c00e0	-0.0031128451
159	0x3cae6797	0.02128963
160	0xbcb5aef7	-0.022178156
161	0x3c066ba3	0.0082043735
162	0x40cf94d6	6.4869184
163	0xbf18f31c	-0.59745955
164	0xc00d512d	-2.2080796
165	0xbf88a09c	-1.0674014
166	0x3d33c048	0.043884546
167	0xc0eb4d1f	-7.353164
168	0x3d8e41dd	0.06946156
169	0x3d0018c2	0.03127361
170	0xbc0d4279	-0.008621805
171	0x3c8165d9	0.015795635
172	0xbb86a4bb	-0.004108993
173	0x3b791805	0.0038008702
174	0x3bb332e6	0.005468714
175	0xbca0db53	-0.019635832
176	0x3b996610	0.0046813563
177	0xc038ab43	-2.885453
178	0x3c360619	0.011109852
179	0x3c946f64	0.018119521
180	0x408ca041	4.3945622
181	0x3b7c9663	0.0038541786
182	0xc0e01bf0	-7.0034103
183	0x40a77b33	5.233789
184	0x3e49a247	0.1969081
185	0x3bec5b36	0.0072130216
186	0x3c6a3040	0.01429373
187	0xbaa64069	-0.0012683991
188	0xbcbb29a5	-0.022847006
189	0xbbd29952	-0.0064269686
190	0x3d29b8c7	0.041435983
191	0xbc864a1e	-0.016392764
192	0x39848396	0.0002527504
193	0xc04991ca	-3.1495233
194	0x3d5ccb4e	0.053904824
195	0x3c5ff92c	0.013670247
196	0xbbf0fe2b	-0.007354518
197	0xbc5680ec	-0.013092261
198	0x4096c3b3	4.711389
199	0x4098410f	4.7579417
200	0x3ab3f7cd	0.0013730467
201	0x3c2f5f9a	0.0107039455
202	0xc0f3d51b	-7.619764
203	0xbc99f0b9	-0.018791543
204	0x40c247d5	6.0712686
205	0x3ca05a00	0.019574165
206	0xbc7cbb15	-0.015425463
207	0xbdb7f8cd	-0.08983002
208	0x3c66d2c7	0.014088339
209	0x4045af2c	3.0888166
210	0xbb9250d8	-0.0044652037
211	0xbb84b149	-0.0040494544
212	0xbe04e04a	-0.12976184
213	0xbb216756	-0.0024628243
214	0x3bdb2025	0.0066871815
215	0x4090b221	4.5217443
216	0xc093c1a6	-4.6173887
217	0xc0fab909	-7.8350873
218	0x409cd0fd	4.9005113
219	0x3c395ced	0.011313659
220	0x3e0bd6a5	0.13656099
221	0x3d75f569	0.060048494
222	0xbd19cad7	-0.03754696
223	0x3c1fea4a	0.009760449
224	0xbc95f087	-0.018303169
225	0xbc6c2e46	-0.014415329
226	0x3fbb989a	1.4655945
227	0x4063844b	3.5549495
228	0xbf328d43	-0.697468
229	0x40f14380	7.5394897
230	0x3ec8be08	0.39207482
231	0x3fa4d407	1.2877206
232	0x3dbb1ad7	0.09135979
233	0xbcd322a8	-0.025773361
234	0xbbacd252	-0.0052740956
235	0x3b9e688c	0.0048342403
236	0xbc9389c9	-0.018010037
237	0xbb642763	-0.0034813515
238	0xbcbbcfed	-0.022926295
239	0x3a30a683	0.00067386794
240	0xbc0a5117	-0.008442185
241	0x4014ace6	2.323053
242	0xbad1d345	-0.0016008398
243	0xbc61c649	-0.013780185
244	0x3e28c73c	0.16482252
245	0x3a8992f1	0.0010496062
246	0xc055650f	-3.3342931
247	0x41033f7b	8.202998
248	0x3b249cb5	0.0025117819
249	0xbc809ce3	-0.01569981
250	0x3b61aa40	0.0034433752
251	0xbbece3ab	-0.0072292886
252	0x3cb1585f	0.021648584
253	0xbc9cb395	-0.0191286
254	0xbd246b9c	-0.040141687
255	0x3d1da396	0.038486086

arith.constant5 f4 [64]
0	0xbebff46b	-0.37491164
1	0x3f025783	0.5091478
2	0xc08a6adc	-4.3255444
3	0x405bea34	3.4361696
4	0x403525fc	2.8304434
5	0xbfcdf380	-1.6089935
6	0x3fa9498d	1.3225571
7	0x3f84e6c6	1.0382926
8	0x3b88d746	0.004176053
9	0x4069ca97	3.65299
10	0x3f7a4317	0.9775862
11	0xbf9a4380	-1.2051849
12	0x405b444b	3.4260433
13	0x3f42a940	0.76039505
14	0x4090e953	4.528482
15	0xbfdbcf21	-1.7172586
16	0x3ff148bb	1.885032
17	0xbf7b5b67	-0.98186344
18	0x3febe062	1.8427851
19	0xc01df7c1	-2.4682467
20	0xc02722f5	-2.6115086
21	0xc0806df8	-4.013424
22	0xc09887e8	-4.76659
23	0xbd59ca14	-0.053171232
24	0x3fb4ec2c	1.4134574
25	0xbf840d31	-1.0316526
26	0x3fa9a3de	1.3253133
27	0xc01db127	-2.4639375
28	0x3fd8614d	1.6904694
29	0x3ff623c4	1.9229665
30	0x4002ca63	2.0436027
31	0x3f877810	1.0583515
32	0xc05f8f0a	-3.4931054
33	0x3f477d1f	0.77925295
34	0x3fefad51	1.8724767
35	0xbf45a516	-0.77205026
36	0x3ffac38d	1.9590927
37	0x3f898c63	1.0745968
38	0xc0451d76	-3.0799232
39	0xbf1226f8	-0.5709071
40	0x40013c70	2.0193138
41	0xbe413044	-0.18866068
42	0x40a02890	5.0049515
43	0xc02d92aa	-2.7120767
44	0x40ad3641	5.412873
45	0x3f04a9d8	0.5182166
46	0x4037e008	2.8730488
47	0x400518ba	2.0796342
48	0x400bfaec	2.18719
49	0xc0a4cf6a	-5.150319
50	0x3f2eb058	0.6823783
51	0xbfb0f1d8	-1.3823805
52	0xbf8f1163	-1.1177181
53	0x3f8d4853	1.1037697
54	0x3f0f88ee	0.56068313
55	0x401e8231	2.4766963
56	0xbe81da7c	-0.25362003
57	0xbe24d01b	-0.16095011
58	0xc0967092	-4.7012415
59	0x3cfef34e	0.031121876
60	0x3fe39a70	1.7781506
61	0x3ed8bf74	0.42333567
62	0x3f5b5975	0.85683376
63	0xc0596ef5	-3.3973973

arith.constant6 f4 [64]
0	0xbbf02ee2	-0.0073298076
1	0x00000000	0.0
2	0xbb2043c5	-0.0024454456
3	0xb6624058	-3.3714077e-06
4	0x3c36a325	0.011147295
5	0x310163b2	1.882864e-09
6	0x00000000	0.0
7	0x00000000	0.0
8	0xb633fd04	-2.6820353e-06
9	0xbc7b8583	-0.015351656
10	0x00000000	0.0
11	0xbb39790b	-0.0028300907
12	0x00000000	0.0
13	0x3808148f	3.2444073e-05
14	0x3ae14e5a	0.0017189488
15	0xbacbd386	-0.001555071
16	0x33c26716	9.05258e-08
17	0x00000000	0.0
18	0x3548ad26	7.475777e-07
19	0xb737acd8	-1.0947893e-05
20	0xbc2c94a0	-0.010533482
21	0x3749a78f	1.2019546e-05
22	0x3bee9f72	0.007282191
23	0x00000000	0.0
24	0x00000000	0.0
25	0x00000000	0.0
26	0x00000000	0.0
27	0x00000000	0.0
28	0x00000000	0.0
29	0xbc291904	-0.010320906
30	0x3ba1ebd8	0.004941445
31	0xb7873522	-1.6117996e-05
32	0xbab0da89	-0.0013492863
33	0x3bc224fe	0.00592482
34	0x00000000	0.0
35	0x00000000	0.0
36	0xbbc1a179	-0.0059091416
37	0x00000000	0.0
38	0xbad96d9c	-0.0016588452
39	0x00000000	0.0
40	0x3bdadaa7	0.0066788974
41	0x3c3ecdf1	0.01164578
42	0x39207eac	0.00015305978
43	0x36d99c58	6.4853048e-06
44	0xbc1f6929	-0.009729662
45	0xb6857935	-3.9778192e-06
46	0xbbe33c72	-0.006934696
47	0xb6537894	-3.1511636e-06
48	0x37338541	1.0700257e-05
49	0x00000000	0.0
50	0x38079225	3.2322616e-05
51	0xbc92820d	-0.017884279
52	0x00000000	0.0
53	0x373aa239	1.1124234e-05
54	0x00000000	0.0
55	0x00000000	0.0
56	0xbba2fc58	-0.0049739294
57	0xbbb80628	-0.0056159683
58	0x36dc1da3	6.559961e-06
59	0xb6f4c55a	-7.2947414e-06
60	0x3b2a3a89	0.002597483
61	0xb80866d5	-3.2520697e-05
62	0xbaea3675	-0.0017869013
63	0x3bdad4e7	0.006678212

sequential_1/dense_1/MatMul f4 [64, 8]
0	0xbe006976	-0.1254023
1	0x3dacc9f0	0.08436954
2	0xbe5fc875	-0.21853812
3	0x3e1dd3c5	0.15412815
4	0x3dbeaea7	0.09310656
5	0xbe6a9a07	-0.2291032
6	0xbe72b4af	-0.23701738
7	0xbd6323d4	-0.05545409
8	0xbe89563b	-0.268236
9	0xbe86c279	-0.26320246
10	0x3e6f7c58	0.23387277
11	0xbe4d223a	-0.20032588
12	0x3c2110a0	0.009830624
13	0xbe48d2d7	-0.19611679
14	0xbe9057b5	-0.28191915
15	0xbddb4680	-0.10706806
16	0xbe35be35	-0.1774834
17	0xbe88a95e	-0.26691717
18	0x3e86397b	0.2621573
19	0xbdb4f372	-0.08835496
20	0xbd931953	-0.071825646
21	0x3cb9064a	0.022586007
22	0x3da38f4c	0.07986316
23	0x3e5aa26c	0.21351022
24	0xbdca3ef0	-0.098752856
25	0x3e2c018f	0.1679747
26	0x3e2af67d	0.1669559
27	0xbdbddda8	-0.09270793
28	0xbabe732b	-0.0014530172
29	0xbea1d089	-0.31604412
30	0xbe8967a2	-0.26836878
31	0x3d9e0dd2	0.0771748
32	0xbaeeeb4d	-0.0018228084
33	0x3e87d4d7	0.2652957
34	0x3e7a436f	0.24439786
35	0x3d08959d	0.033345807
36	0xbe64fe39	-0.22362603
37	0xbd944349	-0.07239396
38	0x3ea49e94	0.32152236
39	0x3e973f7b	0.2954062
40	0x3d923560	0.07139087
41	0x3e99ee39	0.30064562
42	0x3e767aa0	0.24070215
43	0xbe0a9b80	-0.13535881
44	0x3dd3c422	0.10340144
45	0xbe01a5ae	-0.12660858
46	0x3e4dab48	0.2008487
47	0xbe10fcf4	-0.14158994
48	0x3e1a7ee4	0.15087467
49	0xbe20a669	-0.1568848
50	0x3de01700	0.10941887
51	0xbc9586c0	-0.01825273
52	0xbe8265f3	-0.25468406
53	0xbe8855f1	-0.26628068
54	0x3e29abd4	0.16569453
55	0xbe92574b	-0.28582224
56	0x3cb0a6d0	0.021563917
57	0x3d0554a8	0.032551438
58	0xbe77d52f	-0.24202417
59	0xbdf7e0f6	-0.12103455
60	0xbd162ef8	-0.036665887
61	0x3e20a9d2	0.15689781
62	0xbe3e5a5e	-0.1858916
63	0x3c31c280	0.010849595
64	0xbe86425d	-0.26222506
65	0xbd6827c2	-0.05667854
66	0x3e67b0f5	0.22626098
67	0x3e56b513	0.20967512
68	0x3e6b53d8	0.22981203
69	0xbe16f851	-0.14743163
70	0x3d05b365	0.032641787
71	0x3e6454e9	0.22298016
72	0xbdedaad6	-0.1160485
73	0xbdb134c9	-0.08652646
74	0xbd1f1b9e	-0.038844697
75	0x3db5e1ae	0.088809356
76	0x3e88ba91	0.2670484
77	0x3e197e59	0.14989604
78	0x3e3f0c3f	0.18657015
79	0xbbdb84dc	-0.0066991877
80	0xbd7389ac	-0.059457466
81	0xbda50f78	-0.08059591
82	0x3dc11310	0.09427464
83	0xbe139abf	-0.144145
84	0xbe93597a	-0.28779203
85	0xbe6f769e	-0.23385093
86	0x3dd848a4	0.1056073
87	0xbe88a708	-0.26689935
88	0xbd50f2f1	-0.051012937
89	0x3e565f3a	0.20934764
90	0xbe0d9a91	-0.13828494
91	0xbd840c3d	-0.06447647
92	0xbe821482	-0.2540627
93	0xbe5074c6	-0.20357046
94	0xbe4226df	-0.1896014
95	0x3e21c51e	0.1579785
96	0xbe3411aa	-0.17584863
97	0x3b85cd00	0.004083276
98	0xbe2b92d2	-0.16755226
99	0xbe29b904	-0.16574484
100	0xbc9fe030	-0.01951608
101	0x3dd16cec	0.10225853
102	0xbdd081cc	-0.10181007
103	0x3e045c26	0.12925777
104	0x3de0ab9e	0.109702334
105	0x3e76dcd8	0.24107683
106	0x3e81a3a9	0.25320175
107	0x3d858680	0.065197945
108	0xbdf94eb0	-0.121732116
109	0x3e275ba6	0.16343555
110	0x3d2ab2e5	0.041674513
111	0xbe37ecc8	-0.17961419
112	0xbe6c793e	-0.23093125
113	0x3ccac606	0.024752628
114	0x3dcb3eb5	0.0992407
115	0xbbcf49a4	-0.0063259173
116	0x3c8aef76	0.016959887
117	0x3e6137a8	0.21993887
118	0x3e7073e4	0.23481709
119	0xbe61d701	-0.22054674
120	0x3bc11cba	0.005893317
121	0x3e01cb33	0.1267517
122	0x3d81f572	0.06345643
123	0x3e21d04f	0.1580212
124	0xbe932833	-0.28741607
125	0xbe5a0796	-0.21291956
126	0x3d97f598	0.0741989
127	0xbb11e416	-0.0022261194
128	0xbd4472d3	-0.047961067
129	0xbdc1a41a	-0.09455128
130	0x3e6be2a5	0.23035677
131	0xbe1e8c07	-0.15483104
132	0x3e1436fa	0.14474097
133	0x3d6e018c	0.058106944
134	0x3d95a238	0.073063314
135	0xbcb6d549	-0.0223185
136	0xbe25b60a	-0.16182724
137	0xbdbfd5d0	-0.093669534
138	0xbe6c4491	-0.23073031
139	0xbe24dd3e	-0.16100022
140	0xbdd4034a	-0.1035219
141	0xbe84c617	-0.2593238
142	0xbd035908	-0.03206733
143	0x3ddc63f8	0.10761255
144	0x3e871c1d	0.26388636
145	0x3e86ef92	0.26354653
146	0xbd0c9854	-0.03432496
147	0x3e6842e2	0.22681764
148	0x3d4d960f	0.050191935
149	0xbddb3e09	-0.10705192
150	0xbe43593a	-0.19077006
151	0xbe849837	-0.2589738
152	0xbe0d3a48	-0.13791764
153	0xbd1bf9cc	-0.03808002
154	0x3e4fda3a	0.2029809
155	0xbde998dd	-0.114061095
156	0x3e932d3e	0.28745455
157	0x3e2aa449	0.16664232
158	0xbdb0ac9e	-0.08626674
159	0x3e8d2044	0.2756368
160	0x3cdef275	0.027215222
161	0xbcbc9585	-0.023020515
162	0x3e872209	0.26393154
163	0x3c8f7729	0.017512875
164	0xbe814cc1	-0.2525387
165	0xbc7dd71d	-0.0154931815
166	0x3e0811e2	0.13288072
167	0xbd8cb5e8	-0.06870633
168	0x3e1ee1f5	0.15515883
169	0x3e3d8722	0.1850858
170	0x3e274227	0.16333829
171	0x3e7f7b2e	0.24949333
172	0x3e2dbce5	0.16966589
173	0x3c7ead2a	0.015544215
174	0x3e9a0dc0	0.30088615
175	0x3ca8d9e0	0.020611703
176	0x3e804a79	0.25056818
177	0x3dd00151	0.10156501
178	0xbe9680bd	-0.29395095
179	0x3e181982	0.1485348
180	0x3e7587da	0.23977605
181	0xbd5ea067	-0.05435219
182	0x3e95fbd9	0.29293707
183	0xbe70ea3c	-0.23526853
184	0xbdaf6b9a	-0.08565445
185	0xbc30e5a0	-0.010796934
186	0xbd75c51c	-0.06000243
187	0xbd8ea7b6	-0.06965582
188	0xbca84f60	-0.020545661
189	0xbd96a5b2	-0.073558226
190	0x3d62dd40	0.05538678
191	0x3e257b34	0.1616028
192	0x3e393da8	0.18089926
193	0xbd8f60c2	-0.07000877
194	0xbcca30a0	-0.02468139
195	0x3dc1273c	0.094313115
196	0xbd828e8e	-0.063748464
197	0xbe3d1830	-0.18466258
198	0xbe67b41e	-0.22627303
199	0x3e383c2c	0.17991704
200	0xbe5399f1	-0.20664193
201	0x3cecb740	0.028895974
202	0xbdebb30e	-0.11508761
203	0xbddc0004	-0.107421905
204	0xbe67058f	-0.22560714
205	0xbe338048	-0.17529404
206	0x3e42026e	0.1894624
207	0x3de4a908	0.11165053
208	0xbe240211	-0.16016413
209	0x3c362320	0.011116773
210	0xbe2e5998	-0.17026365
211	0xbe11999b	-0.14218752
212	0xbe83e3ea	-0.25759822
213	0x3e7eb320	0.24873018
214	0xbdb6d732	-0.08927764
215	0x3e3ad994	0.18247062
216	0xbe4c10e8	-0.19928324
217	0xbc23db60	-0.010001034
218	0xbe49c893	-0.19705419
219	0xbda0a590	-0.078440785
220	0x3c5ae0c0	0.013359249
221	0xbdc81c9c	-0.09771082
222	0x3e8a4674	0.27006876
223	0xbe23532a	-0.15949693
224	0x3e78a4bc	0.24281591
225	0xbe08a0e8	-0.13342631
226	0xbe6fb22d	-0.23407812
227	0xbd20dd98	-0.03927383
228	0x3df236d8	0.11826867
229	0xbe1dc09b	-0.15405504
230	0x3e0cda72	0.13755205
231	0xbd1e79c0	-0.03869033
232	0x3d931674	0.07182017
233	0xbc3ef150	-0.011654213
234	0x3e5d6679	0.21621121
235	0x3d84c7d7	0.06483429
236	0xbdcba1fa	-0.09943004
237	0xbb75e5bc	-0.0037520966
238	0xbd294b39	-0.041331504
239	0xbe62ee46	-0.22161207
240	0xbd1c4c12	-0.038158484
241	0x3e1a5ec2	0.1507521
242	0x3e51e094	0.20495826
243	0xbd37c7b0	-0.04486817
244	0xbdf38e3a	-0.11892362
245	0x3ca3d258	0.01999776
246	0x3d5220c1	0.051300768
247	0xbe962aa4	-0.29329407
248	0xbc323efb	-0.0108792735
249	0x3dd7e95d	0.105425574
250	0x3e791f4d	0.24328347
251	0x3c6e09a8	0.014528669
252	0x3d15ad79	0.03654239
253	0x3ded49ac	0.115863174
254	0xbcbefa5f	-0.023312746
255	0xbb8022cd	-0.0039103986
