diabetes_modified.csvmodel2.tflite (tflite, 30072 bytes, 7 tensors)

arith.constant f4 [1, 32]
0.43641263 -0.7179406 -0.3711236 -0.45515427 -0.8216002 -0.3968352 0.35739312 0.54829276
0.4357099 0.8336828 0.20249689 -0.25995287 -0.13848367 -0.25520384 0.7444209 0.41816106
0.5477048 0.7976138 0.6829515 0.8197716 -0.52353436 -0.1716247 0.8413314 -0.45433897
0.07993113 0.09947416 0.13746463 0.44671643 -0.14939743 0.25561473 -0.68320554 0.41507182
00000000: 7a71 df3e f5ca 37bf ea03 bebe fb09 e9be
00000010: 6454 52bf fc2d cbbe 3bfc b63e ea5c 0c3f
00000020: 5e15 df3e 3c6c 553f 585b 4f3e 8b18 85be
00000030: aace 0dbe 14aa 82be 5e92 3e3f 3519 d63e
00000040: 6236 0c3f 6b30 4c3f e9d5 2e3f 8ddc 513f
00000050: 5906 06bf 63be 2fbe 7f61 573f 1e9f e8be
00000060: efb2 a33d 1cb9 cb3d 87c3 0c3e 04b8 e43e
00000070: a4fb 18be efdf 823e 8fe6 2ebf 4b84 d43e

arith.constant2 f4 [32, 64]
0.077791445 0.5817034 -0.15908536 0.78428346 0.07811372 -0.16690865 1.0068576 0.20003466
0.27864218 -0.31663936 0.29248017 -0.34201443 0.056484766 -0.42135084 0.039761472 -0.41463333
0.24182066 -0.31697354 0.5709288 0.2273068 -0.15362044 -0.2761964 -0.64012253 -0.34797704
-0.10561156 -0.09391749 0.5036019 -0.40353602 0.5592117 0.48440757 0.075851694 -0.044097375
0.8989889 -0.2780394 0.2650278 0.45019758 0.112909794 -0.4263914 0.031710315 -0.4301531
-0.4565572 0.33085862 -0.43027213 0.6629083 -0.17497376 -0.36375663 0.6634279 -0.07242338
-0.04353686 -0.22829756 0.59438866 0.08681383 -0.66458964 -0.24604754 0.10995272 0.074567586
-0.4548953 -0.15939085 0.09122709 -1.0992544 0.87038344 0.15300182 -0.62884104 -0.21656138
-0.17348103 -0.09396174 0.028656656 0.8582893 -0.06514126 -0.47816607 -0.8094586 0.6022608
-0.6064674 -0.045492154 0.53189063 0.6306435 0.39624918 -0.018605277 -0.32029837 -0.043334756
-0.77930945 -0.046700228 0.02655661 -0.38867322 -0.2715615 0.45331827 0.8124768 -0.5783477
0.30160514 -0.18631116 -0.26196656 -0.32276186 0.21767451 0.47244594 -0.15325165 0.41609004
0.6310644 0.34644312 0.35951862 -0.022632524 -0.1010967 -0.4310641 0.3769318 -0.3098165
0.29213732 0.6137636 -0.010856037 -0.6857737 -0.8127612 -0.21668014 0.7017308 -0.46093065
-0.044621192 -0.44367528 -0.39681736 -0.029963544 -0.6416888 -0.22884728 0.12484615 0.6299909
-0.1612759 0.036922965 -0.009255037 1.3140049 0.5072571 0.32600707 -0.6080818 -0.23873281
-0.2495434 -0.32671696 0.89694005 -0.08200727 0.102208845 0.3738237 0.7042543 -0.30270183
0.3984183 -0.041717876 -0.26108435 -0.36884612 -0.5630164 -0.29125237 0.29883727 0.19003335
-0.6201449 -0.35483631 0.2884247 -0.0141835185 0.6412658 0.2888687 0.75545233 -0.24104582
-0.27895054 -0.2524676 -0.32936516 -0.26122603 -0.3536082 -0.04100918 0.24699573 -0.2222235
0.6432547 -0.36301073 -0.17941478 -0.29090708 0.0927218 0.2438595 -0.18676555 -0.5317811
0.22619095 0.114805326 0.88071555 0.6668642 -0.116740674 0.21475437 0.4073703 0.49191737
0.14380091 -0.114666425 -0.22258922 -0.075684324 0.9245038 0.14803062 -0.04272888 -0.05335152
0.4736507 0.23451355 0.11242806 0.53876424 0.74436563 0.16205041 0.72904944 -0.16175398
-0.07674872 0.58363765 0.24490081 -0.21741362 -0.38915557 -0.5583921 -0.009891955 0.7111552
0.4160132 0.27535284 0.47086477 -0.09418828 0.93709093 0.32380357 0.051658694 0.27315325
0.6148873 -0.5312552 0.07181015 0.22414398 -1.1020355 0.17820817 0.51486063 -0.57651913
0.035417162 -0.14497015 -0.65350664 -0.43437088 0.5851754 0.04163598 0.084005095 -1.0683156
-0.78774714 0.42466995 -0.23580228 0.18114659 -0.632751 0.5039975 -0.2875121 0.43262893
-0.2878576 0.2105529 0.18057233 0.63209075 -0.65975577 0.37982923 0.29991198 -0.54823786
-0.22405067 0.3188748 -0.10396519 0.27810884 -0.6200741 -0.16894726 -0.009973126 0.913563
-0.1954957 -0.17456312 0.09075093 0.9357223 0.075388364 -0.3306416 -0.20221443 0.18700258
00000000: 1f51 9f3d 84ea 143f 46e7 22be cdc6 483f
00000010: 16fa 9f3d 1aea 2abe b6e0 803f e3d5 4c3e
00000020: 30aa 8e3e 8e1e a2be f6bf 953e 841c afbe
00000030: 925c 673d 4cbb d7be eddc 223d d24a d4be
00000040: d69f 773e 5b4a a2be 6428 123f 1dc3 683e
00000050: ad4e 1dbe 9d69 8dbe 12df 23bf 0c2a b2be
00000060: e04a d8bd d057 c0bd 0eec 003f 469c cebe
00000070: 7f28 0f3f 4504 f83e 2258 9b3d 739f 34bd
00000080: 2324 663f 2e5b 8ebe b9b1 873e 4c80 e63e
00000090: 403d e73d f94f dabe ade2 013d 073d dcbe
000000a0: dec1 e9be 4d66 a93e a14c dcbe 5cb4 293f
000000b0: 522c 33be 4f3e babe 69d6 293f b652 94bd
000000c0: b553 32bd d6c6 69be db29 183f 73cb b13d
000000d0: 8c22 2abf e3f3 7bbe e42e e13d e4b6 983d
000000e0: 09e8 e8be 5b37 23be 45d5 ba3d 5eb4 8cbf
000000f0: 73d1 5e3f 82ac 1c3e bafb 20bf 44c2 5dbe
00000100: 03a5 31be 036f c0bd 5dc1 ea3c d9b8 5b3f
00000110: c868 85bd 2fd2 f4be ae38 4fbf c42d 1a3f
00000120: 7341 1bbf fb55 3abd fc29 083f da71 213f
00000130: 2ce1 ca3e 186a 98bc 26fe a3be c97f 31bd
00000140: d380 47bf bd48 3fbd 3f8d d93c 2d00 c7be
00000150: 1c0a 8bbe 5519 e83e 7bfe 4f3f 980e 14bf
00000160: fd6b 9a3e 5ac8 3ebe 7b20 86be 0b41 a5be
00000170: 11e6 5e3e 6fe4 f13e 00ee 1cbe c109 d53e
00000180: 708d 213f fe60 b13e d312 b83e d867 b9bc
00000190: c90b cfbd 6fb4 dcbe 34fd c03e 45a0 9ebe
000001a0: 0693 953e 9c1f 1d3f 85dd 31bc dd8e 2fbf
000001b0: 1e11 50bf 66e1 5dbe a1a4 333f 1aff ebbe
000001c0: b6c4 36bd 6829 e3be a52b cbbe 1b76 f5bc
000001d0: b845 24bf f156 6abe 57af ff3d 1547 213f
000001e0: 8225 25be 893c 173d 70a2 17bc 5031 a83f
000001f0: 9adb 013f 66ea a63e 40ab 1bbf 6076 74be
00000200: 4e88 7fbe 7247 a7be dd9d 653f 6df3 a7bd
00000210: df52 d13d d265 bf3e 034a 343f bcfb 9abe
00000220: 7cfd cb3e 5de0 2abd d9ac 85be 66d9 bcbe
00000230: d821 10bf 081f 95be 3301 993e 1a98 423e
00000240: d1c1 1ebf 1bad b5be 67ac 933e fd61 68bc
00000250: ff29 243f 99e6 933e 5365 413f b7d4 76be
00000260: 9bd2 8ebe 6f43 81be 8da2 a8be 6bbf 85be
00000270: 220c b5be 3ef9 27bd 73ec 7c3e 8f8e 63be
00000280: 57ac 243f 8bdc b9be 82b8 37be c6f1 94be
00000290: ede4 bd3d 4eb6 793e 783f 3fbe ce22 08bf
000002a0: 9a9e 673e 0e1f eb3d 9376 613f 9db7 2a3f
000002b0: bc15 efbd 92e8 5b3e d792 d03e 98dc fb3e
000002c0: 8c40 133e 3bd6 eabd 6eee 63be 6200 9bbd
000002d0: 48ac 6c3f 5795 173e 7a04 2fbd 2087 5abd
000002e0: 5882 f23e 5224 703e af40 e63d 74ec 093f
000002f0: bf8e 3e3f 8bf0 253e fca2 3a3f d6a2 25be
00000300: 6f2e 9dbd 4769 153f 47c7 7a3e ada1 5ebe
00000310: 663f c7be c9f2 0ebf de11 22bc 440e 363f
00000320: afff d43e 0cfb 8c3e 3015 f13e c9e5 c0bd
00000330: 31e5 6f3f 95c9 a53e 1198 533d beda 8b3e
00000340: 4169 1d3f 5700 08bf 3311 933d 0086 653e
00000350: 800f 8dbf 347c 363e e8cd 033f c296 13bf
00000360: 9611 113d 0e73 14be 364c 27bf dc65 debe
00000370: 0ece 153f 7d8a 2a3d dd0a ac3d 91be 88bf
00000380: cca9 49bf 576e d93e 2776 71be 7e7e 393e
00000390: f8fb 21bf fb05 013f c934 93be 8a81 dd3e
000003a0: 1262 93be 2e9b 573e f4e7 383e b3d0 213f
000003b0: c1e5 28bf fa78 c23e 108e 993e 5159 0cbf
000003c0: 8a6d 65be 8f43 a33e b4eb d4bd 4864 8e3e
000003d0: 2dbd 1ebf 8300 2dbe 5366 23bc 44df 693f
000003e0: 0630 48be adc0 32be a0db b93d 7f8b 6f3f
000003f0: 3765 9a3d db49 a9be 4d11 4fbe 9b7d 3f3e

arith.constant3 f4 [32]
0.20889194 0.15246612 -1.0471685 -0.23639007 -0.99978566 -0.16020337 1.6564622 0.6708149
-0.7278593 0.35860074 0.11923365 -1.3856583 0.035106767 -0.076936804 -0.50077975 0.7587639
0.4616763 0.65338457 0.6780568 0.12245156 0.11031964 -0.4653464 0.6139226 0.16360784
0.49061725 0.9009463 -0.37238756 -1.6127539 -1.0316405 0.82065725 -0.05283968 0.030322153
00000000: c5e7 553e 1420 1c3e 9e09 86bf 3d10 72be
00000010: f4f1 7fbf 5a0c 24be f406 d43f 86ba 2b3f
00000020: fd54 3abf 849a b73e c630 f43d 405d b1bf
00000030: 1dcc 0f3d 0b91 9dbd 1a33 00bf 5a3e 423f
00000040: d660 ec3e 3644 273f 2195 2d3f e2c7 fa3d
00000050: 43ef e13d e241 eebe 082a 1d3f d088 273e
00000060: 2f32 fb3e 6ba4 663f 95a9 bebe b86e cebf
00000070: cc0c 84bf 9816 523f 6c6e 58bd 2a66 f83c

arith.constant4 f4 [64, 64]
2.733043 -0.012682044 -0.0013719567 -0.20398258 -0.005088082 -0.015486645 -0.09234763 0.032198958
-0.007363793 -0.016186241 -5.8659163 0.005384159 0.0057583647 5.5021334 -0.010314166 -0.027628524
0.019809214 -5.166343 -0.007009217 2.215151 -0.008411977 0.017052699 -0.027228307 -1.0645305
-0.028909218 0.011617847 5.4345717 0.005628834 -0.005812215 -6.0632987 -0.0046128468 -0.007820782
-0.008388331 0.011925365 0.34340754 -0.056708675 0.004197621 0.013646228 0.8791553 5.612948
-0.0064288764 -0.80679953 6.197006 2.3846471 -4.0106754 -0.021150135 -0.038237713 0.12481141
-0.018895896 3.493504 -0.008338418 -6.3470893 1.5777804 -5.224625 0.03769545 -0.052986383
-2.1389773 3.3880508 -0.0197585 -0.07474669 -0.0030781468 0.117428236 0.031282313 -0.0070274873
-1.7149544 -0.01278668 0.0033419935 0.23515642 0.0008564805 -0.018648267 -0.023503639 0.039142996
0.04234594 0.015281844 -5.629355 0.014902357 0.016692871 -6.0788155 -0.05061944 -0.028025316
-0.015817229 -5.232507 -0.017353684 4.3711386 0.005922733 0.006597253 -0.043856774 -0.6150455
-0.019767929 -0.030271502 7.1305985 0.0027993082 0.014722253 -1.5896538 -0.007626033 0.009606352
-0.30163053 0.01142692 0.19150983 -0.08246123 0.03728752 -0.02169033 7.365244 1.3385224
-0.00041103963 0.086284444 3.4079447 -1.3296951 -4.729715 -0.011076006 0.024339622 0.14699663
0.005734005 0.4264954 -0.003927484 0.35755503 4.3998666 -0.32597747 -0.043177675 0.015295092
5.1478796 5.7629337 -0.024674352 -2.1051714 -0.002147248 -0.12691109 -0.009739685 -0.0048029926
0.47896203 0.008097781 -0.015203024 0.28148714 -0.0020212724 0.010875587 -0.025441786 0.002739668
0.005195922 -0.03281387 -4.4188333 -0.006571879 0.025829304 3.5113268 -0.003060093 -0.00057437416
0.00546757 -4.6177034 -0.031225491 -1.2193046 -0.01466297 -0.008902152 0.023459017 0.57914186
-0.009124735 0.01041437 -5.4962516 -0.0076297685 0.0108517045 -1.3872316 -0.0039699622 -0.015382877
0.16886583 0.03446192 -0.36274767 -0.102850065 0.06873158 -0.013692464 4.5214653 -1.3246942
0.004171089 1.2429863 6.3797736 0.33952308 -4.1836705 -0.012208776 0.036727097 0.1748249
0.008441698 5.395027 0.020342158 4.873889 -3.794478 -1.4292669 0.044940736 -0.03646247
4.31863 -0.7536981 -0.010513097 -1.2070941 0.001597549 0.10346004 -0.022273174 -0.015534711
5.94396 0.0031616187 0.0009794194 0.13519804 -0.0030344496 -0.04572334 -0.006853746 -0.012824889
0.0070648906 -0.06277296 -3.6431246 0.0035546338 -0.021100719 3.813237 0.067125715 0.024773937
0.008213517 5.1265397 -0.002264553 -5.09993 0.007862151 0.006954869 -0.007080612 -0.14055412
-0.018260898 0.020848716 1.2661276 -0.013346999 -0.012969754 -4.093596 -0.02484885 -0.01299992
-0.10360963 -0.018038912 -1.1892827 -0.030108131 0.15807185 -0.009448389 -0.9576483 0.5872658
-0.014525909 -1.2684032 6.8695126 -0.2908899 6.414094 -0.004439136 0.001397732 -0.16615677
0.005090361 3.0839622 0.046779145 1.6060222 -2.7867956 7.1358757 0.0054465374 0.051551625
4.721334 -0.7336987 -0.016283475 0.51124746 -0.001888786 0.06499977 0.015161201 0.017371565
00000000: 2dea 2e40 59c8 4fbc 3ad3 b3ba cfe0 50be
00000010: edb9 a6bb b2bb 7dbc c120 bdbd 0ee3 033d
00000020: f94b f1bb 0299 84bc 96b5 bbc0 996d b03b
00000030: aab0 bc3b 7a11 b040 bffc 28bc 3755 e2bc
00000040: ef46 a23c af52 a5c0 93ad e5bb 09c5 0d40
00000050: 64d2 09bc 1ab2 8b3c e60d dfbc 8942 88bf
00000060: 06d3 ecbc c858 3e3c 03e8 ad40 1572 b83b
00000070: 6574 bebb 8b06 c2c0 5d27 97bb bd22 00bc
00000080: 366f 09bc 9b62 433c 1dd3 af3e 5b47 68bd
00000090: 328c 893b 6e94 5f3c 5210 613f 459d b340
000000a0: 53a9 d2bb 6a8a 4ebf e04d c640 0f9e 1840
000000b0: 7457 80c0 0c43 adbc 269f 1cbd 209d ff3d
000000c0: 91cb 9abc 9295 5f40 dc9d 08bc 5b1b cbc0
000000d0: b5f4 c93f 2130 a7c0 8b66 1a3d 4008 59bd
000000e0: 01e5 08c0 d3d5 5840 94dc a1bc cb14 99bd
000000f0: bcba 49bb 377e f03d e221 003d d646 e6bb
00000100: a083 dbbf 397f 51bc 5905 5b3b d8cc 703e
00000110: 6f85 603a 40c4 98bc b48a c0bc 6854 203d
00000120: f072 2d3d b360 7a3c ad23 b4c0 0429 743c
00000130: 7dbf 883c a885 c2c0 5456 4fbd 5995 e5bc
00000140: 2293 81bc b370 a7c0 5029 8ebc 5ee0 8b40
00000150: 7c13 c23b c52d d83b 29a3 33bd 9f73 1dbf
00000160: 5af0 a1bc f1fb f7bc dd2d e440 9974 373b
00000170: 9b35 713c c779 cbbf cde3 f9bb f663 1d3c
00000180: 516f 9abe fa37 3b3c 271b 443e 6fe1 a8bd
00000190: ccba 183d ebaf b1bc 14b0 eb40 b454 ab3f
000001a0: ce80 d7b9 e6b5 b03d c41b 5a40 7333 aabf
000001b0: d359 97c0 2378 35bc e363 c73c 4986 163e
000001c0: 52e4 bb3b 9b5d da3e 20b2 80bb 7411 b73e
000001d0: b5cb 8c40 85e6 a6be 13db 30bd 4498 7a3c
000001e0: 6ebb a440 f469 b840 de21 cabc 21bb 06c0
000001f0: d8b8 0cbb fbf4 01be 3393 1fbc 6c62 9dbb
00000200: 833a f53e 8eac 043c 1b16 79bc 151f 903e
00000210: 5377 04bb 852f 323c 4b6b d0bc 008c 333b
00000220: 8e42 aa3b d667 06bd 1567 8dc0 eb58 d7bb
00000230: fa97 d33c 94b9 6040 d78b 48bb 9991 16ba
00000240: 4d29 b33b 3ac4 93c0 9acc ffbc 2c12 9cbf
00000250: f43c 70bc 55da 11bc 202d c03c a442 143f
00000260: ea7f 15bc 09a1 2a3c 4be1 afc0 2303 fabb
00000270: 59cb 313c ce90 b1bf 7516 82bb 7608 7cbc
00000280: 2aeb 2c3e f127 0d3d 10ba b9be 0ea3 d2bd
00000290: 25c3 8c3d 5b56 60bc d8af 9040 948f a9bf
000002a0: a1ad 883b 2d1a 9f3f 1b27 cc40 f8d5 ad3e
000002b0: a1e0 85c0 5107 48bc 276f 163d 4c05 333e
000002c0: 0c4f 0a3c 10a4 ac40 99a4 a63c e6f6 9b40
000002d0: bad8 72c0 38f2 b6bf c713 383d ac59 15bd
000002e0: 3832 8a40 5cf2 40bf 203f 2cbc 0f82 9abf
000002f0: d964 d13a dce2 d33d 3b76 b6bc 4d85 7ebc
00000300: ec34 be40 2933 4f3b dd5f 803a 5b71 0a3e
00000310: 9edd 46bb 6648 3bbd 6395 e0bb 7c1f 52bc
00000320: 9980 e73b 1c8f 80bd f428 69c0 dcf4 683b
00000330: 6adb acbc 130c 7440 3579 893d b6f2 ca3c
00000340: fd91 063c 9d0c a440 e568 14bb a032 a3c0
00000350: 40d0 003c abe5 e33b 7a04 e8bb 6bed 0fbe
00000360: e197 95bc edca aa3c 7810 a23f 5fad 5abc
00000370: 177f 54bc bdfe 82c0 d18f cbbc 9efd 54bc
00000380: 4931 d4bd 57c6 93bc 6a3a 98bf 54a5 f6bc
00000390: 96dd 213e 6acd 1abc 7028 75bf 0d57 163f
000003a0: 14fe 6dbc 095b a2bf 0cd3 db40 85ef 94be
000003b0: 4240 cd40 2c76 91bb 1a34 b73a 0025 2abe
000003c0: 0bcd a63b a35f 4540 7d9b 3f3d 2392 cd3f
000003d0: dc5a 32c0 1859 e440 de78 b23b cc27 533d
000003e0: 2b15 9740 aed3 3bbf ec64 85bc 1de1 023f
000003f0: 2491 f7ba 991e 853d b066 783c d04e 8e3c

arith.constant5 f4 [64]
2.094345 -2.0126748 -1.4461635 1.3396919 -2.9031477 3.2156894 0.9766712 -1.2023908
0.009525235 0.3272896 2.6116955 2.068814 2.129925 1.346295 4.0532084 1.435095
3.2199142 -0.35149762 -2.2745922 -0.32211745 1.2877792 5.148928 0.37030682 0.93911684
0.5387492 -5.7829323 -0.32411084 -2.948326 -2.4209118 1.7764062 1.5076752 -0.84226185
-1.2833482 -0.5079211 0.5673055 3.3932748 0.6333323 0.66340774 -0.12328769 -0.2449939
0.92489064 -0.21093598 -0.46595347 3.3780851 1.0160046 2.2215562 0.99658066 0.7706276
-0.05898911 -0.7144566 -0.5308315 0.08985854 -0.16834773 -4.2095103 -3.0920084 0.6290951
3.3027859 -1.0210955 -2.0794373 0.49294913 2.0438497 -2.6028128 1.0769578 -2.4977329
00000000: c009 0640 aacf 00c0 e31b b9bf 067b ab3f
00000010: 2ccd 39c0 dbcd 4d40 2007 7a3f f1e7 99bf
00000020: bb0f 1c3c 8192 a73e 0526 2740 7367 0440
00000030: b150 0840 6553 ac3f e2b3 8140 31b1 b73f
00000040: 1313 4e40 7ff7 b3be eb92 11c0 94ec a4be
00000050: f3d5 a43f 05c4 a440 db98 bd3e f669 703f
00000060: 78eb 093f c80d b9c0 dbf1 a5be 60b1 3cc0
00000070: 38f0 1ac0 4761 e33f 80fb c03f 799e 57bf
00000080: c144 a4bf 1e07 02bf ef3a 113f 6a2b 5940
00000090: 1122 223f 17d5 293f 427e fcbd aedf 7abe
000000a0: a2c5 6c3f 9aff 57be 7491 eebe 8c32 5840
000000b0: 700c 823f fa2d 0e40 e91f 7f3f da47 453f
000000c0: 919e 71bd a1e6 36bf 93e4 07bf c107 b83d
000000d0: 5963 2cbe 4fb4 86c0 77e3 45c0 600c 213f
000000e0: d860 5340 42b3 82bf 8015 05c0 d463 fc3e
000000f0: 6fce 0240 7c94 26c0 c1d9 893f dbda 1fc0

arith.constant6 f4 [64]
0.0 0.0007434887 0.002708495 -0.0031241877 -0.012811719 0.012795684 -0.009111454 1.7425346e-05
-1.348677e-05 -0.0036441071 0.0 -0.011551127 -7.1712548e-06 0.0 0.0006923216 0.001261119
-0.0018271382 0.0 0.014275311 0.0 2.36239e-05 0.008045233 -0.007137915 -0.0030364061
-0.009737411 0.0040499633 0.0 -0.0044495887 0.01941504 0.0 0.0036909543 -0.00034322208
-0.0023421822 -3.0434561e-05 -0.00053130224 -0.004673218 0.00028639825 0.0030583327 0.0 -0.0027021635
1.915602e-05 0.0 0.0 0.0 0.0 -4.371113e-06 -5.5434426e-05 0.0017237298
0.0077310605 0.0 0.009548155 0.0 0.0 0.0 -0.00013683563 0.007127288
0.0 0.0 0.021592876 0.0013873419 2.7669512e-06 -0.007215392 -0.011131719 -0.0122529175
00000000: 0000 0000 afe6 423a 0181 313b 2cbf 4cbb
00000010: 3fe8 51bc fda4 513c 3548 15bc a52c 9237
00000020: 3c45 62b7 f9d1 6ebb 0000 0000 f040 3dbc
00000030: 9ca0 f0b6 0000 0000 eb7c 353a 224c a53a
00000040: 967c efba 0000 0000 fee2 693c 0000 0000
00000050: f02b c637 27d0 033c 2ce5 e9bb 71fe 46bb
00000060: a989 1fbc 8eb5 843b 0000 0000 dbcd 91bb
00000070: 4a0c 9f3c 0000 0000 f0e3 713b 7df2 b3b9
00000080: 4c7f 19bb b94d ffb7 1747 0bba cb21 99bb
00000090: b927 9639 4f6e 483b 0000 0000 c816 31bb
000000a0: 3db1 a037 0000 0000 0000 0000 0000 0000
000000b0: 0000 0000 93ab 92b6 4382 68b8 c6ee e13a
000000c0: d654 fd3b 0000 0000 dd6f 1c3c 0000 0000
000000d0: 0000 0000 0000 0000 897b 0fb9 068c e93b
000000e0: 0000 0000 0000 0000 8be3 b03c 78d7 b53a
000000f0: dcaf 3936 186f ecbb d061 36bc 76c0 48bc

sequential_1/dense_1/MatMul f4 [64, 8]
0.01355347 -0.13835959 -0.26322833 0.15265828 -0.16846043 0.10152012 -0.12914874 0.19876844
0.057240896 0.20347463 -0.2627782 0.21922182 0.15522444 0.068829186 -0.22361699 -0.15461922
-0.21209952 -0.27769035 0.10021288 0.09857307 0.28793865 -0.20384936 0.05829916 0.095038354
-0.10476958 0.05606577 -0.006590269 -0.28711507 -0.28028136 0.18936464 0.09555717 0.22631668
0.17630771 0.2363783 -0.26505026 0.033479154 0.28990322 -0.2551034 0.31495577 -0.16940576
-0.087736696 0.13232633 -0.11083352 0.05536178 -0.15079147 0.30171317 -0.09009033 0.10073406
-0.09623592 -0.0680407 0.13809104 0.23929715 -0.06891792 -0.23524934 -0.22892462 0.18662696
0.09571212 0.09957352 0.27096054 0.04166663 -0.014489048 -0.21496837 -0.032734536 0.14032494
-0.11652523 0.1198334 0.23415953 0.04994042 -0.0017462409 0.24696729 -0.16654573 -0.2677526
-0.19740976 -0.11868746 0.26540646 0.27912727 -0.25837666 0.071018875 0.1921928 -0.056038637
0.25759548 -0.20470305 -0.2388306 0.23824257 0.09386429 0.09061712 0.14538893 -0.27890837
0.11432303 0.27931857 0.18916313 0.085436895 -0.21473858 0.18883522 0.30905712 0.10302285
-0.12016946 0.13875054 0.029743725 0.22862317 0.019847231 -0.14782736 0.0027346576 0.22161795
-0.14805359 0.1322796 -0.15989833 -0.1815719 -0.2801899 0.26018548 -0.2799186 -0.10706662
0.13744962 -0.0027873083 -0.041288942 -0.003182275 -0.0055132876 0.16059117 0.22897431 0.15256234
0.23005486 -0.16997106 0.25935724 0.03242664 0.09552882 -0.015995929 -0.072120704 -0.06863751
-0.019377174 0.018089281 -0.2277873 -0.005252759 0.15313569 -0.1644061 0.17454453 0.035219584
-0.066392735 -0.26950288 0.13170841 -0.17422642 -0.09714529 0.20981884 -0.13990995 -0.16371292
0.2748756 0.27271602 -0.1310317 -0.02774526 -0.1267454 0.21182705 0.2943889 -0.10751382
-0.049978957 -0.27936393 0.100916296 0.18486369 -0.26816162 -0.25939497 0.08947384 0.10040912
-0.111217976 0.2240565 0.29172847 0.16935638 0.048133574 0.18912482 -0.2739016 -0.25950548
0.08286784 0.049958434 0.12127462 -0.250534 0.15657741 0.02764404 -0.13810492 -0.30370784
-0.037390016 -0.022004308 0.05454643 -0.12875192 0.06336021 0.097377524 0.11978351 -0.107209556
0.09441837 -0.075484775 0.07861067 0.10628231 -0.21530001 0.11548413 -0.044805836 -0.0014574542
-0.23376028 0.11044875 -0.17230529 0.041295473 0.059126884 -0.13744886 -0.24948557 -0.02346126
-0.13199829 -0.11736431 0.24008058 0.16600502 0.13335623 -0.28302515 -0.13780566 -0.28159916
0.04081297 -0.24831021 -0.08349155 -0.14665623 -0.28385976 -0.0909777 0.08226997 0.26637018
0.014295774 0.18534121 0.115736626 0.12286909 -0.20584624 -0.028785532 0.015498219 0.23838432
-0.22775418 -0.26355666 0.18389572 -0.10266912 0.2621913 0.28557685 -0.17479028 0.13530408
-0.19159268 -0.04144101 -0.11748907 -0.13199288 -0.21620537 -0.06677334 -0.011616647 -0.23811501
0.12529553 0.26276717 0.007154654 0.031449534 -0.20376056 0.27177775 -0.03423046 -0.14191729
-0.20435858 0.032975964 -0.086459294 -0.16507396 0.1746633 0.033395614 0.050102256 0.19136229
00000000: 600f 5e3c 23ae 0dbe ddc5 86be 7452 1c3e
00000010: e480 2cbe c8e9 cf3d 913f 04be f489 4b3e
00000020: 6e75 6a3d a75b 503e dd8a 86be af7b 603e
00000030: 28f3 1e3e 51f6 8c3d dafb 64be 8054 1ebe
00000040: 9e30 59be 6e2d 8ebe 693c cd3d ade0 c93d
00000050: b26c 933e e3bd 50be 1acb 6e3d 78a3 c23d
00000060: 6f91 d6bd 39a5 653d 2ff3 d7bb bf00 93be
00000070: 0a81 8fbe cee8 413e 7ab3 c33d 8fbf 673e
00000080: 028a 343e 270d 723e abb4 87be 7021 093d
00000090: 326e 943e ea9c 82be e241 a13e b478 2dbe
000000a0: 4caf b3bd 8e80 073e affc e2bd 09c3 623d
000000b0: 1469 1abe 267a 9a3e 4781 b8bd a94d ce3d
000000c0: 5717 c5bd ec58 8bbd bd67 0d3e 500a 753e
000000d0: d724 8dbd 34e5 70be 376b 6abe 231b 3f3e
000000e0: b704 c43d 34ed cb3d 57bb 8a3e a1aa 2a3d
000000f0: 7963 6dbc ab20 5cbe a614 06bd 57b1 0f3e
00000100: c8a4 eebd 376b f53d 84c7 6f3e 538e 4c3d
00000110: 1fe2 e4ba fee4 7c3e f78a 2abe de16 89be
00000120: c925 4abe 6912 f3bd 5be3 873e c5e9 8e3e
00000130: f249 84be 5872 913d 30ce 443e c588 65bd
00000140: 8ee3 833e ad9d 51be 0290 74be dcf5 733e
00000150: ec3b c03d 7895 b93d d6e0 143e 14cd 8ebe
00000160: 3122 ea3d d802 8f3e fbb3 413e 8af9 ae3d
00000170: 6ee4 5bbe 055e 413e bc3c 9e3e a5fd d23d
00000180: 681b f6bd 9f14 0e3e 1da9 f33c 311c 6a3e
00000190: a996 a23c 0e60 17be f137 333b d1ef 623e
000001a0: 5c9b 17be 4e74 073e 63bc 23be fced 39be
000001b0: 0d75 8fbe 0837 853e 7e51 8fbe be45 dbbd
000001c0: 98bf 0c3e 46ab 36bb 981e 29bd b78d 50bb
000001d0: cfa8 b4bb 0372 243e 3e78 6a3e 4d39 1c3e
000001e0: 8093 6b3e e50c 2ebe 79ca 843e ccd1 043d
000001f0: 9da4 c33d e509 83bc 05b4 93bd d391 8cbd
00000200: e1bc 9ebc f92f 943c 1341 69be 561f acbb
00000210: 9acf 1c3e 135a 28be cdbb 323e 6942 103d
00000220: eaf8 87bd 48fc 89be 92de 063e 6968 32be
00000230: 1cf4 c6bd c0da 563e 8e44 0fbe 5ca4 27be
00000240: 7fbc 8c3e 6fa1 8b3e 2d2d 06be 074a e3bc
00000250: 8cc9 01be 31e9 583e 24ba 963e 3530 dcbd
00000260: bcb6 4cbd ca08 8fbe 34ad ce3d e84c 3d3e
00000270: 7b4c 89be 6bcf 84be 103e b73d 4ca3 cd3d
00000280: 40c6 e3bd 116f 653e 6f5d 953e c26b 2d3e
00000290: b627 453d f0a9 413e d53c 8cbe e7dd 84be
000002a0: 9db6 a93d 37a1 4c3d d45e f83d fe45 80be
000002b0: d455 203e c175 e23c 606b 0dbe 987f 9bbe
000002c0: 4626 19bd 6142 b4bc 146c 5f3d 8bd7 03be
000002d0: ffc2 813d de6d c73d 0f51 f53d af90 dbbd
000002e0: 6b5e c13d c397 9abd a2fe a03d 8aaa d93d
000002f0: 9b77 5cbe f282 ec3d 5386 37bd 0c08 bfba
00000300: db5e 6fbe f432 e23d cc70 30be 7125 293d
00000310: 082f 723d 65bf 0cbe 2579 7fbe d431 c0bc
00000320: 8f2a 07be b35c f0bd afd7 753e 38fd 293e
00000330: 898e 083e ace8 90be ed1c 0dbe c42d 90be
00000340: 802b 273d 0845 7ebe 9efd aabd 0d2d 16be
00000350: 1156 91be 8452 babd 287d a83d ac61 883e
00000360: d238 6a3c 16ca 3d3e 5307 ed3d caa2 fb3d
00000370: 5bc9 52be a3cf ebbc 3eec 7d3c 051b 743e
00000380: 6438 69be e6f0 86be 294f 3c3e 3044 d2bd
00000390: f03d 863e 2137 923e 39fc 32be 278d 0a3e
000003a0: df30 44be 0cbe 29bd 1c9e f0bd 2429 07be
000003b0: f164 5dbe 76c0 88bd c053 3ebc 6cd4 73be
000003c0: 794d 003e 6b89 863e 9671 ea3b 3ad1 003d
000003d0: 9ca6 50be 7426 8b3e 3d35 0cbd c452 11be
000003e0: 6043 51be ce11 073d 9211 b1bd 2609 29be
000003f0: f0da 323e d7c9 083d 0638 4d3d 7af4 433e
