diabetes_modified.csvmodel2.tflite (tflite, 30072 bytes, 7 tensors)

arith.constant f4 [1, 32]
00000000: b03f e83e 1dd0 803e c8f9 b93e 48b9 02bf
00000010: ccce 91be 47ae 9bbe 31f5 99be 5c90 f8bd
00000020: 2dbf 093f 3a17 88be c30c 7bbe 4d57 db3d
00000030: 8675 063f 2ccd 9cbe d638 a03e 4a9b e23e
00000040: 4bf5 dabc 3f92 143e cb80 02bf bf8b a5be
00000050: c588 06be 71e9 063f 1bc2 a23d ea38 0fbf
00000060: 3ed3 ed3e dc0b b8be 7e71 4fbf fdd8 38be
00000070: 0057 15bf 1a8e 463e b1fa 32be 2214 253f
0.4536109 0.25158778 0.3632338 -0.51063967 -0.28478086 -0.304064 -0.3006988 -0.12136909
0.53807336 -0.2658022 -0.24516587 0.10710011 0.52523077 -0.30625284 0.31293362 0.442591
-0.026728293 0.14508913 -0.5097777 -0.3233318 -0.13138111 0.52699953 0.07947179 -0.5594622
0.46450227 -0.35946548 -0.8103255 -0.18051524 -0.58335876 0.19390145 -0.17478444 0.64483845

arith.constant2 f4 [32, 64]
00000000: 178b c9be efbe adbd 761b 13bf 3fd9 b4be
00000010: 8c01 00bf 7f46 db3d 9710 06bf 8cee b8bd
00000020: 191d 00bf 6245 793f e299 923e a319 3e3e
00000030: d110 cf3e ee0b 94be 0534 0dbc 65b7 04be
00000040: f4a7 11bf 04c5 f1be c428 ca3e 6e91 1e3e
00000050: 497a 103f 4058 18bf a2c6 8cbd a3b8 7e3e
00000060: 9cc1 c23d f19d 9f3e 18c8 21be 7b0f 80be
00000070: 821f d03e 3e98 f73e f016 253e 00dc 1c3f
00000080: e57d c7be 5c93 103f 93fe 5abe 9fc4 fdbe
00000090: 0287 c6bc 378f 413f 96e0 4e3e 77b1 ec3d
000000a0: 69c1 943e 1702 f3be d4aa 83be e0f1 8a3d
000000b0: 714b 8bbe 07e4 bd3b 876b cfbe e9e1 8e3e
000000c0: 6e55 18be 15a6 7d3e a10b 11bf 2963 0e3f
000000d0: 4810 593d 6fbb a03e 80ca 663d b624 adbe
000000e0: ebfd 80bd 0048 2e3e 50ba d53c 725e 06bd
000000f0: 3996 4b3f f469 0dbe 0d8d 4a3f 1a1a df3d
00000100: e267 5bbe 9c95 04bf 34ee 99bf 7fc0 e53e
00000110: 4504 2a3d e7f5 653e 4573 fbbe 0b16 913e
00000120: 13e8 7e3e 9c20 2d3f 91d3 b23e a1e8 21be
00000130: 43a2 94bd fb7a e1be b5fa d5be 5372 783e
00000140: ea2a d43d 05d9 93be e3cc 8a3d 35c9 d4be
00000150: 2da5 113f 4155 39bf a224 053b d280 5a3e
00000160: ce78 9b3e 5d46 20bd 2fdc ee3e 4a00 f43d
00000170: 3608 bdbe 8819 ec3e 1b10 9f3e 4204 06bf
00000180: ebfa dcbc c9fa 1f3b 8183 c5bd f08d af3f
00000190: f128 8b3e c23a c0be cd23 8b3e 9394 36bf
000001a0: eff2 0fbf a546 37be 0522 ac3e 3aa1 fbbc
000001b0: aaa7 7d3e cffc 543f 7106 6a3e 3f9d 05be
000001c0: 5b4b 043e 77c6 e5be 1ff4 3bbe 740d 7ebe
000001d0: 7957 773e b53a 04be 09a3 143e f31a 7a3b
000001e0: cd99 033f 6dab 15bf 4934 9bbe fb90 ddbe
000001f0: bd13 87be a2b4 8bbe 1c88 33be e8fe 9d3e
00000200: df5e 963e 57de 633e d8d6 843f 659d 4ebf
00000210: 1c92 d33e e6b0 493e dce9 143e cf03 f3be
00000220: 4c6c 063f a6bb 5abf 2e30 20be 703e d0bd
00000230: 78eb 0a3e 785b 2dbf 9f26 c0be 462e 9a3e
00000240: 5c67 d33e cc7f d1be 8874 0d3f 2fb7 4dbe
00000250: dad2 d0bd 0aaa 333e 3bdf 55be a036 b9be
00000260: d44c 2f3e 214e 873e 0b45 53bd 3e87 223f
00000270: deb5 f63d 0e74 593e 8d3b 3fbd a7f7 353f
00000280: f2b4 b8bd 4873 fbbe 541a f93d 4907 23be
00000290: 8c4e 6bbe 44bb aebe f4dc cd3e 78cd 0d3f
000002a0: 2322 173f ecc9 b3be 920d ef3c 243c 943e
000002b0: 2371 c63d 1fb5 c73e 88e4 d73d 3965 c4be
000002c0: f9e9 03be ecb3 923e 74ee 06bf 6b0f f0be
000002d0: 30cd 843e 6276 303d a472 913e 7d48 3b3d
000002e0: ba50 cf3a b65e 1dbb ea28 d63e b221 c93c
000002f0: f878 39bf 1366 263e cb12 ef3e 2e45 c33e
00000300: 05c4 e73c b42d 82bd 983f aabd e0bc 74be
00000310: a438 26be 6fa1 593e 1b75 3e3f 68ed 6f3e
00000320: 8854 2dbf 14e7 4f3f fbf3 b73e 7652 533c
00000330: 907b 0cbe f95b 213f dbbc 80be 0d5a a33e
00000340: a00a 04bf 94a9 cebd feb0 233f bbeb 04bf
00000350: 7d49 003f 5d8d 3f3f fd3f 003d 5da3 1b3e
00000360: 32b0 c5be ece8 88bd 76d4 0ebe 3ba0 293f
00000370: d2bc 7cbe 5a08 fcbe c0b5 44be fc67 ba3e
00000380: 4c96 adbe fb4e 703b 4542 283e 82cd a63f
00000390: e9eb d7bd a66d d63e 8854 81be 7786 26bf
000003a0: c6ee 2f3d afe4 b1be aebe 4a3e 3720 1cbe
000003b0: f771 293f d2d8 5d3f 878c 273b d33b 81be
000003c0: 3aa6 603e 9852 b9be 36d5 57be aaab 183f
000003d0: 7451 37bc 740e 4d3e f89a 98be ad2b 483e
000003e0: 7952 2f3f 2607 cdbd 7b6a 7f3f a240 42bd
000003f0: d998 07bf 1db6 5a3e 691c 0ebe 3e8d f33d
-0.3936393 -0.08483683 -0.5746378 -0.35321996 -0.5000236 0.107068054 -0.52369064 -0.09029874
-0.500444 0.97371495 0.28633028 0.18564467 0.40442517 -0.28915352 -0.008618359 -0.12960584
-0.568969 -0.47220623 0.39484227 0.15485165 0.5643659 -0.5950966 -0.06873824 0.24875121
0.09509584 0.31175187 -0.15798986 -0.2501181 0.4064904 0.4835834 0.16122031 0.61273193
-0.38963237 0.5647485 -0.21386175 -0.49564072 -0.024234299 0.75609154 0.2020286 0.11557286
0.2905381 -0.47462532 -0.2571627 0.06784415 -0.27205995 0.0057950052 -0.40511724 0.2790673
-0.14876339 0.24770387 -0.5665837 0.55620056 0.052994043 0.31393 0.056345463 -0.3381707
-0.06298431 0.17019653 0.026089817 -0.032804914 0.79526097 -0.13809949 0.79121476 0.1089365
-0.21426347 -0.51790786 -1.2025819 0.44873425 0.041507978 0.22457086 -0.4911138 0.2833713
0.24893217 0.6762788 0.34927037 -0.15811397 -0.072575115 -0.4403914 -0.41792837 0.24262361
0.10359748 -0.2887651 0.0677736 -0.4155976 0.56892663 -0.7239571 0.0020316024 0.21338204
0.30365604 -0.039129604 0.46652362 0.11914118 -0.36920327 0.4611323 0.31066975 -0.52350247
-0.026975116 0.0024410954 -0.09644223 1.3715191 0.27179673 -0.3754483 0.2717575 -0.71320456
-0.5623006 -0.17898043 0.33619705 -0.030716527 0.2477099 0.83198255 0.2285402 -0.13048266
0.12919371 -0.4487798 -0.18354844 -0.2480982 0.24154462 -0.1291302 0.14515318 0.0038163036
0.51406556 -0.584647 -0.30313328 -0.43274674 -0.26382247 -0.2728625 -0.1753239 0.3085854
0.29369256 0.22252785 1.0378065 -0.80708915 0.4132241 0.19696388 0.14542335 -0.47463843
0.52509 -0.8544258 -0.15643379 -0.10168159 0.13566387 -0.67717695 -0.37529466 0.3011343
0.41289794 -0.40917814 0.5525594 -0.2008941 -0.10196467 0.17545334 -0.20885937 -0.36174488
0.17119151 0.26426795 -0.051579516 0.63487613 0.12046407 0.21235678 -0.04668765 0.7108101
-0.090188876 -0.4911139 0.12163225 -0.15920748 -0.22979182 -0.34127247 0.40207636 0.55391645
0.59036463 -0.35114992 0.029181276 0.28952134 0.09689548 0.39005372 0.10541636 -0.38358477
-0.12882222 0.28652894 -0.527076 -0.46886763 0.25937796 0.04308165 0.28407776 0.045723427
0.0015816905 -0.002401275 0.4182809 0.0245522 -0.7245021 0.16249876 0.46694025 0.38138717
0.028291712 -0.063563734 -0.08312911 -0.23900175 -0.16232544 0.21252988 0.7439744 0.23430407
-0.6770711 0.8121197 0.3592833 0.012898078 -0.1371901 0.63030964 -0.25144085 0.3190464
-0.5157871 -0.10090938 0.63941944 -0.51922196 0.50112134 0.7482508 0.031311024 0.15199037
-0.3861099 -0.06685051 -0.13948235 0.6626012 -0.24681404 -0.49225122 -0.19209957 0.3640746
-0.3390373 0.003666817 0.1643153 1.3031466 -0.10543043 0.4188053 -0.25259805 -0.6504893
0.04295232 -0.34744784 0.19799301 -0.15246664 0.6618952 0.86658967 0.0025565939 -0.25240955
0.2193841 -0.36195827 -0.21077427 0.5963694 -0.0111888535 0.20025045 -0.29805732 0.19547911
0.6848522 -0.10011129 0.9977185 -0.04742492 -0.529676 0.21358533 -0.13878025 0.11892174

arith.constant3 f4 [32]
00000000: efc3 b2be 6b87 1a3e daf4 64bf a3f9 62bf
00000010: f6d0 e1bf 784e b4be bf04 0a3e 209e e03f
00000020: 62ff cbbf 7d90 2cbf 2113 423e a9fd 9ebf
00000030: b1ca 94bd 507e 2fbf b7e4 c8be 38aa 82bf
00000040: 2f32 21bf ca32 bbbe d851 0c3f c30c 5c3f
00000050: b640 59bf d1d5 323f 3ca9 8ebe 8783 183f
00000060: ccfc 7abf 70ae 833f 4f75 633f ebc7 a43f
00000070: 9ddf f7be c006 babf b219 31bf ede2 ca3e
-0.3491511 0.1509072 -0.89436114 -0.88662165 -1.7641895 -0.35216117 0.13478373 1.7548256
-1.5937312 -0.6740797 0.1895261 -1.2421161 -0.07265223 -0.6855211 -0.39236996 -1.0208197
-0.629672 -0.36562186 0.54812384 0.8595697 -0.84864366 0.6985751 -0.2786349 0.59575695
-0.9804199 1.0287609 0.88850874 1.287351 -0.4841279 -1.453331 -0.6917983 0.39626256

arith.constant4 f4 [64, 64]
00000000: 6f19 2e40 bb2e 333c 4707 2abf 2bd0 42c0
00000010: f51c fabf 82f5 5cbc 4cc3 87bf e980 dcbf
00000020: 37f1 d6ba b7d2 91ba 3c28 c83b 8d7e 4bbe
00000030: c248 25c0 de20 96bc 65ca fc3a cd93 1cbb
00000040: bac0 2139 148a be3b b38a 44bc a522 7b3c
00000050: e238 dd3a ba1a b13b 4e2f b83b b1c4 91bf
00000060: c825 863c f5b3 9d3f b8e3 053e 73f9 383c
00000070: 8438 2bbd eec9 51bc 06ff fd3c 1536 413c
00000080: 16f5 05bd 214b 1d40 44f5 5dbf 77e1 573d
00000090: 8246 e1bb 3488 4c3f 8b03 05c0 13d6 433f
000000a0: 6a82 18bc 4464 cc3b 105c 73bc 77ea bdbb
000000b0: a358 3ebc ac89 443d 0911 99bc 3152 b23d
000000c0: 29d0 333f 7579 0f3c 3c61 32bc fc55 3ac0
000000d0: 19fd 00bc 6640 5bbb 5c35 fabd 219b 58bf
000000e0: 532a d4bb f1d4 573b 4a46 e2bc 7432 6c3c
000000f0: e371 223d 8bb2 0140 ec2b be3b 2290 a6bc
00000100: db7f 0e40 d1f4 86bc 901e fabf 10e2 8dbf
00000110: f897 6f3f a842 4e3c 1c56 c8bf 59ba 04c0
00000120: df7c 6d3b 7235 393c edc9 0e3c 9874 eabf
00000130: fe6d 1740 0e5c 803c 5e9d a0bb 840d 0cbc
00000140: 1f54 273d ef55 f03b f632 a23c a44e b9bc
00000150: 10b7 1b3c 3e7b e4bb a185 df3b c953 af3f
00000160: c3bc 073c c802 23c0 ecd1 9a3e 93e3 39bc
00000170: 7605 13bc 49f0 463b 36c1 023d 0537 3bbc
00000180: 94b6 2dba efed a03f 39c4 283f edb0 283d
00000190: 5ff8 adbc e094 04c0 000f 2e40 2993 90bf
000001a0: 3252 85bb 0f70 ad3c c8bd 57ba d854 20bc
000001b0: 8e56 38bc a4ac 073d e6bb 843d 1bbb 0abf
000001c0: 1063 17bf bd01 28bc cd55 99ba e502 ba3d
000001d0: e40d 943b c4da 11bb e01c aabd ce89 4fc0
000001e0: c228 48bc 461d 04bd d5e5 09bc a9f9 70bc
000001f0: f162 363e 8470 0940 8ca2 0cbc 3124 a3bc
00000200: be0d 1540 57d4 11bc 4887 1540 606e 1dc0
00000210: b00a 923f 111b 53bc fc20 e4bf 787e 0c40
00000220: bdc5 6ebb 4848 95bc cc46 75bc 5579 9ebe
00000230: c23e d73f fb81 4bba 06f7 54bc 27db 993b
00000240: 5921 e8bc 1d6c 943c d40d b33c dcf7 273c
00000250: a2b6 d73b 5738 27bb dd10 ec3a b1eb ffbe
00000260: 675b ca3a 57b5 ccbf e66e 8cbe ab61 d93b
00000270: 9028 92bb b533 743c 19d4 043d 085c 2abc
00000280: 0ac2 00bd e536 cdbf 7e25 06bf 77b2 403d
00000290: 6d6c a03c 420c 2a40 a6af c0bf dcc0 47c0
000002a0: b025 12bc 3473 81bc a5f5 273c d4e8 93bb
000002b0: 218b 0d3c 7035 4f3d c0c1 99bc 16ac c9be
000002c0: ce4c 293f 99cd ccba 49c4 ebba bad4 7a3f
000002d0: e738 e73b 8e2a 713b 3dfb 7b3d cb3c 7bbf
000002e0: 4acb ad3b 6c69 a5bb a62d dfbc c3c6 4e3b
000002f0: 7bc0 e33d b3af d43f 3c75 463c a894 a1bc
00000300: 5ff7 ff3f 5336 033c b784 97bf c4aa 7cbf
00000310: ea7d ddbf 7b6e 4b3c a0f1 9c3f 8f6b 08c0
00000320: b364 413a 26f3 343b 5992 b33c 5d74 e73f
00000330: 35f4 f6bf e740 cabb e97e 38bc 76ea 1dbb
00000340: 3e92 7c3c e905 a53c 0368 50bb 8e0e 433b
00000350: a4db f7ba bb24 44bb a481 6cba a3e9 e2be
00000360: 35f1 12bd 6ab7 3a40 378b b4be 617e 1c3c
00000370: babf 95bc e15e 943c d248 2a3d 929c 043c
00000380: c542 24bc bfb5 91be f3ef 053d c8a2 d7bc
00000390: 15c3 1d3c 8ca5 fb3f 3afc aebf f96b 4ebf
000003a0: 663c 43bc d519 9ebb be9a af3b 9f23 f03b
000003b0: e7fe de3b 5429 893c 7f1c f33c a24f b43e
000003c0: 0e9f fdbe bbd6 bdb9 5977 033d 1f04 ed3f
000003d0: 26f3 30bb 850a d63a eb1d 5abd 63e5 ba3f
000003e0: 6aec d03b fb2b 363c 37fb ff3a 3121 b8ba
000003f0: 1170 833b ba49 18c0 5d7d 923c d2e7 a1bb
2.7203023 0.010936434 -0.66417354 -3.0439556 -1.9540087 -0.013486268 -1.0606475 -1.722684
-0.0016398792 -0.001112542 0.006108312 -0.19872494 -2.5825658 -0.01832622 0.0019286392 -0.0023891807
0.00015425953 0.0058148 -0.011995959 0.015328084 0.0016877914 0.0054047974 0.0056208735 -1.138815
0.016375437 1.2320544 0.13075149 0.011289942 -0.041801944 -0.012804491 0.031005394 0.011792679
-0.032704435 2.4577105 -0.8670237 0.052705254 -0.0068748603 0.7989533 -2.0783412 0.76498526
-0.009308437 0.0062375385 -0.014853492 -0.0057957727 -0.011617812 0.047982857 -0.01868488 0.08707083
0.702395 0.008756985 -0.01088744 -2.911498 -0.007872843 -0.0033455133 -0.12217209 -0.8461171
-0.006474772 0.003293332 -0.027621407 0.014416326 0.039659392 2.0265224 0.0058035757 -0.0203324
2.2265537 -0.01647416 -1.9540577 -1.1084614 0.9359126 0.012589134 -1.5651278 -2.0738738
0.003623776 0.011304246 0.008715135 -1.8316832 2.3660884 0.015668895 -0.004901572 -0.008548144
0.04085171 0.007334463 0.01979969 -0.022620507 0.009504095 -0.0069726994 0.0068213497 1.3697444
0.00828475 -2.5470448 0.30238283 -0.011345762 -0.00897347 0.0030355623 0.03192254 -0.011426692
-0.00066266325 1.2572612 0.6592441 0.041184355 -0.021236597 -2.0715866 2.7196655 -1.129491
-0.0040686363 0.021171598 -0.0008229879 -0.009785853 -0.011251105 0.033123627 0.06481151 -0.5419175
-0.5913553 -0.010254321 -0.0011698544 0.09082583 0.0045182575 -0.0022255639 -0.08306289 -3.242786
-0.012216749 -0.03225448 -0.008416613 -0.014707961 0.1781118 2.1474924 -0.008583676 -0.019914718
2.3289638 -0.008900723 2.336382 -2.4598618 1.1409512 -0.012884871 -1.7822566 2.195219
-0.003643378 -0.018222943 -0.014970493 -0.30951944 1.6816027 -0.0007763204 -0.012998348 0.0046953144
-0.028336214 0.018117959 0.02185718 0.010251965 0.006583051 -0.002551576 0.0018010397 -0.49984506
0.0015438617 -1.599284 -0.2742836 0.0066339574 -0.004460402 0.014904906 0.032428835 -0.0103979185
-0.03143505 -1.6032377 -0.5240096 0.047045197 0.019582951 2.6569982 -1.5053604 -3.1211462
-0.008920118 -0.015802003 0.010251437 -0.0045138393 0.008639128 0.05058807 -0.018769145 -0.39389104
0.6613282 -0.0015625238 -0.0017987575 0.97980845 0.007056344 0.0036799046 0.061518896 -0.9813964
0.005303775 -0.0050479677 -0.027243447 0.0031551577 0.11120697 1.6616119 0.012112912 -0.019724205
1.9997367 0.008008557 -1.1837376 -0.9869807 -1.7304051 0.012416477 1.2261238 -2.1315649
0.0007377371 0.0027610748 0.02192037 1.8082386 -1.9293276 -0.0061722877 -0.0112607265 -0.0024096048
0.015415726 0.02014442 -0.0031800277 0.0029763314 -0.0018910062 -0.002992912 -0.00090220035 -0.44318876
-0.035874564 2.9174447 -0.35262462 0.009551615 -0.018279899 0.018111648 0.041573353 0.00809397
-0.010025685 -0.28458974 0.032699537 -0.026322737 0.009629031 1.9659896 -1.3670723 -0.80633503
-0.011916256 -0.0048248568 0.005359023 0.007328465 0.006805289 0.01674334 0.029676674 0.35217005
-0.49535412 -0.00036208876 0.03209624 1.8516883 -0.0027000397 0.0016330039 -0.05325119 1.4601253
0.006375839 0.011118884 0.0019529824 -0.0014047978 0.004011162 -2.3795 0.017882043 -0.004940965

arith.constant5 f4 [64]
00000000: 33d8 0fbf c864 e2be 0bfb 14be 5e07 b6bf
00000010: dd67 6bbf 2783 3640 e36a 6f3f d452 d2be
00000020: b535 973e 51dc cabf 37f7 0dc0 215b b5bf
00000030: 9d4f f43f 16f2 ba3f 9691 8a3f 9443 9fbd
00000040: 04e3 0c3f f9f8 d9bf c7f6 ed3f 9777 0340
00000050: deda 05c0 a092 4240 d1d6 67be adc2 15c0
00000060: 9543 0dc0 5aed 8440 aa11 2e40 49bb b63f
00000070: 6f3b d3bf af30 f93e bb08 dc3e 35af 8ebf
00000080: d35e d7bf 2aec 1fbe 04a5 4dc0 3f35 f0be
00000090: a1bc 4840 d02a 3d40 349a 30c0 c997 e53f
000000a0: a996 36bf 0a35 6bbe 9251 1ebf c90a 54c0
000000b0: f9ae 9140 9e98 ee3e 0bc8 47bf 71fd 1040
000000c0: ec5e e3bf 363a 523f f595 0240 846e 0fc0
000000d0: ae88 38c0 2058 1ac0 f51c f9bd 7338 2f40
000000e0: e934 cc3e afa6 d13f 71ce 2cbf 31f8 7ec0
000000f0: 940f 90bf 0884 59bf 9d56 bc3f e09c 0840
-0.5618927 -0.44217515 -0.1454889 -1.4220998 -0.9195536 2.851755 0.9352247 -0.41078818
0.29533163 -1.5848485 -2.2182138 -1.4168435 1.9086796 1.4605129 1.0825679 -0.077765614
0.550339 -1.7029105 1.8590935 2.0541742 -2.0914836 3.0401993 -0.2264054 -2.340007
-2.2072499 4.1539736 2.7198281 1.4275905 -1.6502513 0.48669955 0.4297541 -1.1147219
-1.6825813 -0.15617433 -3.2131968 -0.46915624 3.136513 2.955738 -2.7594118 1.7936946
-0.7132364 -0.22969452 -0.61843216 -3.3131583 4.552609 0.46600813 -0.78039616 2.2654688
-1.7763343 0.8212007 2.0404027 -2.2411203 -2.8833423 -2.4116287 -0.12163726 2.7378204
0.39884117 1.6378993 -0.67502505 -3.9838984 -1.1254754 -0.8496709 1.4713932 2.134575

arith.constant6 f4 [64]
00000000: 0000 0000 759b 873c 0000 0000 0000 0000
00000010: 0000 0000 34d0 a13b 0000 0000 0000 0000
00000020: 782b 03bc 5b83 6836 0eb1 f937 0000 0000
00000030: b1d2 92bb 8463 9036 8c73 713b e880 0db3
00000040: 9e2b 2cb7 7dcf 4c3c 8edf 4a3c b598 0abc
00000050: 16b0 5a34 6b8c 4f34 bcfe 1c3c af82 62ba
00000060: 8b20 43bc 0000 0000 a351 033b f377 9c36
00000070: 00a1 41bb 0176 0f3c 7402 613b c611 3933
00000080: 2e33 573b 0000 0000 290f 0f3a 0b8c 65b8
00000090: e053 113c 0000 0000 0000 0000 0000 0000
000000a0: a6dc 873a 56b5 5036 a577 d9bb 9431 9d3b
000000b0: be63 8735 38f5 3a3c 7366 debb d933 ecbb
000000c0: 0cdd a5ba 53e5 0536 bf86 463b 0000 0000
000000d0: 2876 2c37 8ce7 9c35 4f39 caba 0000 0000
000000e0: 74ed 303a 2cfe a13a 6b6f 733b 6f81 b63a
000000f0: 9726 cc3a 0000 0000 4b69 15bc 41be ad3b
0.0 0.01655362 0.0 0.0 0.0 0.00493815 0.0 0.0
-0.008005969 3.4647153e-06 2.976556e-05 0.0 -0.004480683 4.3031196e-06 0.0036842553 -3.294636e-08
-1.0262154e-05 0.012500641 0.012382401 -0.00845926 2.0366892e-07 1.9329461e-07 0.009582218 -0.0008640689
-0.011909614 0.0 0.0020037673 4.663126e-06 -0.0029545426 0.008756162 0.0034333738 4.3089834e-08
0.0032836902 0.0 0.0005457276 -5.472828e-05 0.008870095 0.0 0.0 0.0
0.0010365441 3.1099967e-06 -0.006636577 0.00479717 1.0087313e-06 0.011411004 -0.0067871152 -0.007208329
-0.0012654378 1.9952029e-06 0.0030292717 0.0 1.0279509e-05 1.1690295e-06 -0.0015428456 0.0
0.00067492505 0.0012359074 0.0037145268 0.0013924072 0.0015575466 0.0 -0.009119342 0.005302221

sequential_1/dense_1/MatMul f4 [64, 8]
00000000: d14f 16be d99e 1dbe 3252 44be 581b 5e3e
00000010: 9a20 60be b711 13be f2cf a7bd cc51 c2bd
00000020: d757 75bd 2f5d 6dbd 4b18 f5bd 242e 66bc
00000030: 4845 883e 26bf 6dbe e286 fd3d ca0b 22be
00000040: b015 b73d 6294 92be 086a c33d d0a9 943d
00000050: 84e0 88be 8c19 593e 38e0 a9bd b116 74be
00000060: ce62 933e 4077 5abe a6b4 d6bd e645 fcbd
00000070: df0c 3cbe 3074 bc3d 405f 52be ceee 193e
00000080: 401f 893e d044 8dbe d4e5 0c3e 389d 213d
00000090: e81b 5abe 182c 2c3e e619 39be 400a b6bc
000000a0: 99af 6cbe f79c 73be 6749 26bc abf3 863e
000000b0: 0b2e 643e 0fbf 90be 981b 913e 67b9 03be
000000c0: 1af6 86be 2c96 bcbd 2435 ea3d e078 843e
000000d0: 5958 83be cb52 2dbe 5e1d d7bd 2c1c 3abd
000000e0: 0011 57bc fc89 a93d e12d 87be 2daf 82be
000000f0: 6071 3dbc 4447 5b3e e63d 2b3e 2358 8bbe
00000100: e742 b0bd d7bb 003d fe43 c5bb fc23 19be
00000110: 7818 5c3e 9dcc 91be 4218 c23d f400 39be
00000120: ace0 533e 4131 4f3d d590 493d 91d8 4b3e
00000130: 749e fb3d 16d1 3ebd c8ae 49bd ee7d 56bd
00000140: 303a 62bd e507 2b3e 124f 623e a103 193e
00000150: f679 11bd 31ac 74be eebc 563e 3177 903e
00000160: 1035 b83d 2edf 30be 8a7f 2c3e 7018 8fbd
00000170: 88d9 26bd 385a ed3d 44a0 aabd 8211 3cbe
00000180: 82b6 07be 771d 73be 0d99 3f3e a5f2 90bd
00000190: 20b9 79be 1fbc 8e3e 9fdb 63be 51ee a63c
000001a0: f2e1 86be 33dc 6c3e fc1d 90bd 1580 39be
000001b0: 6e1b 483d a2c4 833d cca7 86be 2b13 563e
000001c0: 8dab 0dbe 944a dd3c a661 183e 1f23 7bbe
000001d0: 5852 743e e84b 7cbe 0445 7d3e 8552 7e3d
000001e0: 6dd4 543e 1810 453e db7f 783d 42f0 4d3e
000001f0: 9eec 123e b7f1 79be 4e0b 5e3e 7b61 41bc
00000200: 49d0 8a3e dcc6 083e ebb3 78bb 1c21 a5bd
00000210: 8ec8 b0bc 6e7f 753e 421f ffbd d593 52be
00000220: b4d7 07be 85f6 06bd b2a4 a03d a65e 06be
00000230: 9f19 153e 16a8 3d3e 95af 343e f07d 87be
00000240: 30b2 d03d 6f47 4d3e 5f30 153e 2071 a13d
00000250: fd22 20be 2e5f 8bbd b089 703e fdb1 bbbd
00000260: f79e 10be 7ad7 d5bd 2e88 0ebe f991 553e
00000270: b027 263e 4c9d 0b3e 34b4 b7bd 9646 d23c
00000280: 5a0d da3b 9160 463e bb97 8b3e b9ac 313e
00000290: 0bf1 653e 06cc 1ebe dbb5 933d c56a aa3d
000002a0: b3fa 85bc 1eaa 6c3e 9a35 c03d 7620 503d
000002b0: 23dc 903e ab53 bfbd 415c 6a3e 37ef 573d
000002c0: 0731 08be 75df 343b f2b2 3dbe 852b 033d
000002d0: 5e07 943e f893 62be 7fe6 34be d8c5 3abe
000002e0: 70ee 113e 4189 59be 34ba b43b cf38 ee3d
000002f0: 928c efbc e4e3 f83d 0348 8b3d 5631 423e
00000300: d0df 7bbe 7066 8b3d 6f92 6abe 0066 dd3d
00000310: 725b 8e3d 02ac d0bb 7c48 ae3d 4c24 8abd
00000320: 1cd2 c03d 2c09 07be 58f1 6c3d ca9b 75be
00000330: b7c2 67be 1841 31be 00cf e6bd ddcd 35be
00000340: 5d9a 5cbe 88f9 473e 6053 89be 7477 703e
00000350: fe0c 35be 7fd9 34be 1052 a7bd 5d21 6e3d
00000360: d020 d63c 8435 7c3e f18b 1c3b 85d5 44be
00000370: c849 7b3d e0a0 293e c582 bd3d 83e0 0fbd
00000380: b1c8 343e 1bd5 63be d769 493b ef0c c4bd
00000390: b406 303e fd75 33be c6fb 873e a866 833e
000003a0: 9ac7 be3d 51ee 933e 2309 8a3e 20dd 463e
000003b0: 01e1 42be 3713 91be ca04 963e 9e54 da3d
000003c0: 6ae4 35bc b02e 83be 8317 6e3e 6a85 1c3e
000003d0: cc7d 213d 309d aebc cfcb e6bd 1861 713e
000003e0: c00d 403e e893 babd 8d89 453e b045 6bbe
000003f0: e951 6c3e f9ec 733e ff5e 833e 31de 423e
-0.14678885 -0.15392627 -0.1917198 0.21690118 -0.21887437 -0.14362226 -0.08193959 -0.09488258
-0.059898224 -0.057950195 -0.11967524 -0.014049087 0.26615357 -0.23217449 0.123792425 -0.1582481
0.089396834 -0.28628832 0.09541708 0.07258952 -0.26733792 0.21201152 -0.082947195 -0.23836781
0.2878632 -0.21334553 -0.10483675 -0.123180196 -0.18364285 0.092018485 -0.20544147 0.15032503
0.26781654 -0.27591562 0.13759547 0.039456576 -0.21299708 0.16813695 -0.18076286 -0.022221684
-0.2311386 -0.23790346 -0.010149336 0.2635778 0.22283189 -0.28270766 0.28341365 -0.12863694
-0.26359636 -0.092083305 0.11435917 0.2587347 -0.2565334 -0.16926114 -0.10503648 -0.045437023
-0.013126612 0.082782716 -0.2640219 -0.25524274 -0.011562675 0.21413904 0.16722831 -0.2721568
-0.086065106 0.031429138 -0.006020068 -0.14955133 0.21493709 -0.2847642 0.09477283 -0.1806677
0.20691174 0.05058408 0.04921039 0.19906832 0.12286082 -0.04658612 -0.04923895 -0.05236619
-0.055231273 0.1670223 0.22100475 0.1494279 -0.0355167 -0.23893811 0.20970508 0.28215936
0.08994496 -0.17272636 0.16845527 -0.06987083 -0.040734798 0.115894735 -0.083313495 -0.18366054
-0.13253215 -0.23741709 0.18710728 -0.07077531 -0.24387026 0.278779 -0.22251748 0.02037731
-0.26344258 0.23130874 -0.07036969 -0.18115266 0.048854284 0.06433989 -0.26299894 0.2090575
-0.13834973 0.0270131 0.14881 -0.24525116 0.23859537 -0.24638331 0.24733359 0.062090416
0.20784159 0.1924442 0.060668807 0.20111182 0.14348075 -0.24408613 0.21684 -0.011803026
0.27112034 0.13357109 -0.0037949036 -0.08062956 -0.021580007 0.23974392 -0.12457134 -0.20564206
-0.13265878 -0.032949943 0.07843913 -0.13122043 0.14560555 0.18521151 0.17645104 -0.2646327
0.101902366 0.20046781 0.14569233 0.07882905 -0.15638347 -0.068052635 0.23490024 -0.09164808
-0.1412314 -0.104414895 -0.13919136 0.20856465 0.16226077 0.13634223 -0.08969918 0.025668424
0.0066544237 0.19372775 0.272642 0.17351045 0.22455232 -0.15507516 0.072124206 0.08321146
-0.016354894 0.2311177 0.09385224 0.050812207 0.2829295 -0.0934213 0.22886755 0.052718367
-0.13299952 0.002759901 -0.18525293 0.032023925 0.2891187 -0.22126758 -0.17666052 -0.18239534
0.14251113 -0.21243764 0.005515361 0.11631929 -0.029241834 0.12152842 0.068008445 0.18964133
-0.24597096 0.06806648 -0.22907422 0.108104706 0.069510356 -0.006368161 0.08509919 -0.06745204
0.09415075 -0.13187093 0.05784735 -0.2398521 -0.22632872 -0.17309988 -0.11269951 -0.17754312
-0.2154326 0.19528782 -0.26821423 0.23483068 -0.17680737 -0.17661093 -0.08169949 0.058137286
0.026138693 0.2462979 0.0023887123 -0.19222076 0.06134966 0.16565275 0.09253458 -0.03512622
0.17654683 -0.22249262 0.0030733251 -0.095727794 0.17190057 -0.17525478 0.26559275 0.25664258
0.09315415 0.28892758 0.26960096 0.1942029 -0.19031145 -0.28334972 0.2930053 0.10660671
-0.011101821 -0.25621557 0.23251157 0.15285268 0.03942661 -0.021315187 -0.11269342 0.23572195
0.18755245 -0.09110242 0.19290753 -0.22975802 0.23078121 0.23820867 0.25658414 0.19030072
