DSA/diabetes_modified.csvmodel2.tflite (tflite, 30072 bytes, 7 tensors)

arith.constant f4 [1, 32]
000000 8b e5 7a 3d f8 49 03 3f ca 6b 0f be db 49 1d bd
       0.061254065 0.5128474 -0.14005962 -0.038400512
000010 34 50 80 3f 24 a2 0c 3e 33 7a 68 3e da e1 40 3f
       1.0024476 0.13733727 0.22702865 0.7534462
000020 3d 5c 62 3f b0 28 55 bf 29 36 e2 3b 1e 45 29 bf
       0.88421994 -0.8326521 0.006903429 -0.6612109
000030 38 54 30 bf fb 44 da be 66 8e 3d 3f d5 dd 30 bf
       -0.6887851 -0.42630753 0.7404541 -0.6908849
000040 d7 5c e3 3e b7 16 c1 be b7 c0 4f 3f 7d f5 5e bf
       0.4440677 -0.37712643 0.81153435 -0.87093335
000050 81 9c 4c 3e d7 91 77 3e 62 82 1a be 9d 20 57 3e
       0.19981577 0.24176727 -0.150888 0.21008535
000060 1e 9d d6 be 15 bf 0d be 72 63 37 3e 37 80 12 3e
       -0.41916746 -0.13842423 0.17909029 0.14306723
000070 94 dd 89 3f 44 62 5a 3e 9c d5 db be ce aa ad 3e
       1.0770745 0.21326548 -0.4293641 0.33919376

arith.constant2 f4 [32, 64]
000000 a0 c1 aa 3d 3c df 47 3d 64 4b 48 be 33 58 63 3e
       0.08337712 0.048796877 -0.19560009 0.22201614
000010 5d 6e 3b be 3d df af 3d 42 46 5a 3e fb d1 4b 3e
       -0.18303819 0.08587501 0.21315864 0.1990432
000020 7b 4a c2 bd 77 12 ad be 9e da 8b be 71 20 a8 3e
       -0.09486862 -0.3380315 -0.2731523 0.3283725
000030 9d 3a da be af 04 d2 3e bf bb 77 bd 9d e9 41 3d
       -0.42622843 0.41019198 -0.060481783 0.04734193
000040 a6 6a fd bb a9 ca b6 3e 4d e5 4c be ec 71 50 be
       -0.0077336608 0.35701492 -0.20009346 -0.20355958
000050 98 4d 05 3f f5 7d bd bd 30 04 5d 3d 68 72 3c 3e
       0.52071524 -0.0925254 0.05395907 0.18403018
000060 5b e9 76 3e 6d 64 64 3d e3 d6 db bd 09 43 28 3f
       0.24112456 0.055759836 -0.10734346 0.6572729
000070 f6 41 0f 3f ba d4 92 3e 83 21 50 3f fb 6c 5c be
       0.55960023 0.28677922 0.81301135 -0.21525948
000080 fc da 65 be 82 65 48 bd 0c 94 18 bf 50 47 7f be
       -0.22446817 -0.04892493 -0.596009 -0.24929547
000090 cf 7a 29 3d 9f b5 ca be 01 78 e6 3e 17 ee d8 3e
       0.041376885 -0.3959169 0.4501343 0.42369148
0000a0 af ca 8b be d7 31 85 bf 4e 9e 0d be 35 d1 ce be
       -0.27303073 -1.0405835 -0.1382992 -0.40393987
0000b0 1c bb d3 3e 23 fe 11 bf 8f cc 0f 3f f9 cc cd 3d
       0.4135369 -0.57028407 0.56171507 0.10048861
0000c0 eb 7e 01 be 65 8d a0 bd 51 35 5a bf f7 ca 81 bd
       -0.12646072 -0.07839469 -0.85237604 -0.063375406
0000d0 53 12 8d bd 2d 18 3e be 72 2f bc bf 82 76 c5 be
       -0.06888261 -0.1856391 -1.4701979 -0.38566977
0000e0 da 21 f4 bc 0d b1 02 3f 0e d7 33 bc 29 34 12 3f
       -0.029801298 0.5105141 -0.010976566 0.5711084
0000f0 94 33 5e be 6b 86 d1 be 27 3e 1a be 49 b4 37 be
       -0.21699363 -0.40922865 -0.15062772 -0.17939867
000100 dc 30 99 3e 88 ff c9 be a1 8e b8 be 0e 0c 1c 3f
       0.2992009 -0.39452767 -0.36046317 0.60955894
000110 7d 09 aa be f4 74 56 3e 9d 75 79 be 30 0c 36 3d
       -0.33210364 0.20943052 -0.24361272 0.044445217
000120 4b 51 b8 bd f8 be f2 bd b7 96 19 3f 8d bd e6 3d
       -0.089998804 -0.11852831 0.599956 0.11266623
000130 ce 36 24 3e 53 15 69 be 4a f9 0b 3e c3 11 88 3d
       0.16036531 -0.22762041 0.13669315 0.06644013
000140 c2 a8 8b be f8 e6 06 3e f8 59 92 bd d7 d5 3d 3e
       -0.2727719 0.13174045 -0.071460664 0.18538605
000150 ef 43 2a be 3e bd 3a 3e 9f 55 1f bf c9 0f f4 bd
       -0.16627477 0.18236253 -0.6224002 -0.11917073
000160 be 78 b1 bd 54 9f e1 bd 29 e1 11 3e 7d da 65 3e
       -0.08665608 -0.110167176 0.14246048 0.22446628
000170 8a 39 d4 bd 28 d1 52 be 3a 42 06 be ef 63 0e 3e
       -0.10362537 -0.205876 -0.13111201 0.13905309
000180 3b 7d bc 3d 54 56 66 3e 7a af 4a 3f a7 a6 cd 3e
       0.09203573 0.22493869 0.79174006 0.40166208
000190 8a 19 2f be 47 71 46 be 35 cf f6 be 2a 06 f6 be
       -0.17099586 -0.1937915 -0.4820496 -0.48051578
0001a0 eb 83 32 bf bc 56 ad 3e 3e b7 c3 be 41 d3 d8 3d
       -0.6973254 0.33855236 -0.3822574 0.105871685
0001b0 70 7b 20 3f 99 79 03 bf 97 16 d1 bd 03 93 23 3f
       0.6268835 -0.5135742 -0.10209387 0.638962
0001c0 a6 7a 82 3e 0b 9e b8 3d f8 cc 84 be f4 ca aa bd
       0.25484198 0.09014519 -0.2593763 -0.083394915
0001d0 1c 52 db 3e 68 9a 95 be 24 ca 46 3f 4f ee 75 bf
       0.42836082 -0.29219365 0.7765219 -0.96066755
0001e0 7e 15 52 be dd 0b 04 3f 97 d1 a6 bd 3a a3 73 3e
       -0.20516011 0.515806 -0.08145445 0.23792735
0001f0 80 4f 54 be 8f 9d e1 3c fa e4 7e 3e 43 21 02 bf
       -0.20733452 0.02754095 0.24892035 -0.50832003
000200 67 b8 4a be 65 0e e1 bd 56 96 da 3e db 16 95 bd
       -0.19796906 -0.10989074 0.42692822 -0.0727975
000210 f5 62 20 3f 7b aa 98 be dc cb dc 3e 05 24 1b 3f
       0.62650996 -0.29817566 0.43124282 0.60601836
000220 6a d9 d2 bd 76 fb c9 be 9d 46 79 be 6c e6 57 3b
       -0.10295375 -0.39449662 -0.24343343 0.0032943739
000230 6c 09 2d 3e 3f 76 72 3d 55 e4 08 be 47 db 03 3f
       0.16898125 0.0591948 -0.13368352 0.51506466
000240 bc 50 02 be 44 bb 7a be 8d 09 8d be 26 2c c7 3d
       -0.1272611 -0.24485499 -0.2754635 0.097252175
000250 c1 14 87 3e 3f b9 33 bf 3e 7b 35 be 49 1d 70 3d
       0.2638302 -0.7020454 -0.17722794 0.05862168
000260 9a 1d 63 3e dc 2b 19 3f 90 7d 84 3e 7a ca ed be
       0.22179261 0.5983255 0.25877047 -0.4644354
000270 ba 11 fd be 93 3d f8 3e fc 13 a0 be 55 8e 2f 3f
       -0.49427587 0.48484477 -0.31265247 0.68576556
000280 73 e3 8a 3e 79 ca 9f be 52 d3 7e 3f e4 81 42 3e
       0.27126655 -0.31209162 0.995412 0.18994862
000290 88 a4 e2 3d 0f 36 1e 3f db 35 6e 3f 81 f8 c7 be
       0.11066538 0.61801237 0.93050927 -0.3905678
0002a0 e6 a8 1e bf 9f 06 a0 bf 73 f4 01 3e 39 e3 55 3e
       -0.6197647 -1.2502021 0.12690906 0.2088746
0002b0 7d a2 73 be 2a 64 22 3f 0b 22 1b 3f b4 18 41 3f
       -0.23792453 0.6343409 0.6059882 0.7542832
0002c0 b8 bd 25 be 7c 7e 28 3e 32 d1 bb 3e f6 a8 df 3d
       -0.16185653 0.164545 0.3668304 0.109208986
0002d0 73 07 84 be 9c 77 6a 3e 18 88 a3 3f 74 02 4f bf
       -0.25786933 0.2289719 1.2775908 -0.8086312
0002e0 18 c8 47 3e ac c7 2c 3f 68 5a fb bd 4d e1 f9 3e
       0.19509923 0.67492175 -0.12273103 0.48804703
0002f0 da 5a 9a 3e 0a 1e d1 be 37 84 06 bd 55 06 08 3e
       0.3014744 -0.4084323 -0.032840934 0.13283665
000300 24 e3 8e be 9d 09 0e bd 72 ff 08 3b 52 a0 d9 be
       -0.2790767 -0.034677137 0.002090421 -0.42505127
000310 f8 28 05 bf c0 2f c2 3e ad eb 15 3f b1 9f 52 3d
       -0.5201564 0.37927055 0.5856274 0.051421825
000320 07 19 ad be 0d a0 e2 3e d5 26 14 3f aa 7c 9d 3b
       -0.33808157 0.44262734 0.5787175 0.004806121
000330 f4 ae 6c be 5c af 8a bc 72 d3 9c 3d 99 5f 05 bf
       -0.23113614 -0.016929321 0.076575175 -0.52098995
000340 be 26 00 bf 2a f8 05 3e 49 63 3d be 5a e2 5e 3e
       -0.50059116 0.13082948 -0.18494906 0.21766034
000350 8e a6 1b 3e 5e b6 a3 be e6 64 70 3e 29 d7 3b bd
       0.15200254 -0.31975073 0.2347599 -0.04585949
000360 6b 86 4c bd d2 22 fe be 22 71 43 be a7 c4 18 bf
       -0.04993288 -0.4963594 -0.19086125 -0.5967507
000370 72 da 71 3e b0 42 fe 3e 67 6b dd 3d 4e 07 21 bf
       0.23618487 0.49660254 0.10811501 -0.6290177
000380 87 f5 95 be 86 d9 e6 3e 27 97 1f bf 07 3b 9b 3d
       -0.29288885 0.45087832 -0.62340015 0.07579618
000390 99 7f b3 bc d5 65 56 3f 2b 3b 7c 3f 74 c2 d7 3e
       -0.02191143 0.83749133 0.98527783 0.42140543
0003a0 b5 a1 7f be 23 75 50 bf 11 94 09 3f c6 40 b2 3e
       -0.2496403 -0.81428736 0.53741556 0.34815043
0003b0 7e d2 db be 7b 71 f0 3e 1c e9 85 bc 6d c0 64 3d
       -0.4293403 0.4696158 -0.016346507 0.055847574
0003c0 dd b9 93 3d 6a 5a fd bd 00 2d b3 bd 96 72 c4 3b
       0.07213185 -0.12370761 -0.087488174 0.005995105
0003d0 5d 7e fa 3e 3a 8e d3 bd d1 ba 34 bf c4 ab 31 bf
       0.48924533 -0.10329862 -0.7059756 -0.6940272
0003e0 f0 c7 d8 3e bb 7b cf 3e 07 b0 9d 3e f5 fb 39 3e
       0.4234004 0.40524086 0.3079836 0.1816252
0003f0 f6 c5 6e be 84 5f 5b be 22 81 72 be 7a 77 94 be
       -0.23317704 -0.21423155 -0.23682073 -0.28997403

arith.constant3 f4 [32]
000000 dc 44 d5 3e f4 28 30 3e f5 37 ce bf 64 79 c5 be
       0.41654098 0.17203122 -1.6110827 -0.38569176
000010 d1 bc 68 3f 12 d7 29 bd 37 35 bc 3e 0e eb 2c bf
       0.9091311 -0.041464873 0.3675935 -0.67546165
000020 dc da 34 be 9b 3f 54 bf c7 ce b4 bf 9b 25 8a be
       -0.17661613 -0.82909554 -1.4125603 -0.26981816
000030 18 97 65 bd 65 b4 b4 bf 0b df f0 3e 59 6d 74 3f
       -0.056052297 -1.4117552 0.47045168 0.9547935
000040 31 10 49 3e 90 80 3a be 88 65 0d 3f 9c a6 5c be
       0.19635083 -0.18213105 0.5523305 -0.21547931
000050 27 bf 20 3f 24 f0 6f be 95 0f 10 40 dc db 6e 3f
       0.62791675 -0.2343145 2.250951 0.9330423
000060 ae 4a ec 3e 73 09 76 3f 90 33 a7 bf 28 89 b3 be
       0.46150726 0.9610817 -1.3062611 -0.3506558
000070 1f 52 31 3f d5 fc 4f 3e 4f 37 81 bf f1 48 7f be
       0.6926593 0.20311292 -1.0095004 -0.24930169

arith.constant4 f4 [64, 64]
000000 3a 2a ac bc 25 30 94 37 fa 47 0f bc 71 12 c5 c0
       -0.021016229 1.7665394e-05 -0.008745188 -6.158501
000010 d4 44 1b bd 7d 0e bd 3d 10 b3 10 3f 09 a7 20 3e
       -0.037907436 0.09231279 0.5652323 0.15688719
000020 47 37 08 bc 12 b4 c4 bc 3d 06 02 3c 9c e4 b3 bf
       -0.00831396 -0.024011645 0.007936058 -1.4054141
000030 68 6e 4c 3c c4 c4 91 bc c6 b8 5a 3c e5 3d cf 3c
       0.012477495 -0.01779402 0.0133497175 0.025298068
000040 82 42 83 c0 cf 20 3a 3e 10 7e 8b 40 59 00 35 bf
       -4.1018686 0.18176578 4.3591385 -0.70703655
000050 e2 2b ac 3b 42 f7 0e 3f d2 a8 ff ba 12 15 03 3a
       0.0052542547 0.55846035 -0.0019505268 0.0005000393
000060 10 7c fa 3c 6c 99 47 40 d7 91 f1 bb 23 60 33 3d
       0.030576736 3.1187391 -0.007372122 0.043792855
000070 5b 39 1a 3e 83 03 8b bb 96 5d ca bc 4d 04 e5 39
       0.15060942 -0.004242362 -0.024702828 0.00043681488
000080 02 98 1f 40 72 85 e9 3f 46 37 f9 3b ac d1 b9 3c
       2.4936528 1.8243849 0.007605466 0.022682987
000090 7f f0 b7 bc 75 9a ca 3c 2c 3c 4a bd ff 0a a0 3e
       -0.022453545 0.024731854 -0.04937379 0.3125839
0000a0 b6 bf dd bc 10 42 ab c0 10 ce aa 3c aa df ba 40
       -0.027068954 -5.3518143 0.020850211 5.8398027
0000b0 ff d4 c8 3b ad c2 38 3d de 26 9b ba b0 d9 c7 3b
       0.0061289067 0.045107532 -0.0011837145 0.0060989484
0000c0 90 d1 df 3c bc 6d 05 c0 9d 74 03 bc bf e0 5c bc
       0.027321607 -2.0848227 -0.008023408 -0.013481318
0000d0 0c 62 4c c0 4d 9d 39 be 1a 62 ad bb a5 35 e8 3d
       -3.1934843 -0.18126412 -0.0052912356 0.11338357
0000e0 a7 22 81 3b c0 c8 22 bc ad d7 a6 bb d0 e6 b3 3c
       0.0039408985 -0.009935558 -0.0050916285 0.021960646
0000f0 a2 01 42 bf 9d ea ac c0 a6 ee aa 3b e0 2b 2f 3c
       -0.7578374 -5.4036393 0.0052164374 0.010691613
000100 21 61 87 bb 3c 7a 24 bc af 02 2d bc 5d dc 88 40
       -0.0041314517 -0.010038909 -0.010559722 4.2769
000110 03 d9 da 3c 8b 3d 84 3c 88 db b4 3e 8a 62 0a 3e
       0.026714807 0.016142627 0.3532374 0.13514152
000120 22 3f aa bc eb d6 3e bb 86 e0 cf ba 88 ab 59 40
       -0.020782057 -0.00291198 -0.001585976 3.4010944
000130 cc a8 8c bc 69 18 4a 3d 93 64 b2 3c 3b 17 09 bd
       -0.017170332 0.049339686 0.021776473 -0.03346942
000140 61 87 d8 c0 9c f0 b0 be 52 58 7e bd 2a a6 99 be
       -6.7665257 -0.3455857 -0.062095948 -0.30009586
000150 11 ea a6 bb c7 a4 67 40 18 e3 8b bc d3 51 a1 bb
       -0.005093821 3.6194322 -0.01707606 -0.0049230843
000160 5a 5a d3 3b 42 cb 77 40 a9 3c 9e bb 5c 6d 23 bc
       0.0064499797 3.8717809 -0.0048290086 -0.009974804
000170 0b 8e 3a 3d 4d 61 23 bb 75 01 2e bd 30 ce 58 3b
       0.04554562 -0.0024929822 -0.04248186 0.0033081882
000180 a1 63 b0 40 15 40 da 40 0a 2c b0 3b bb 4a d6 3c
       5.5121617 6.8203225 0.0053763436 0.026158681
000190 05 6f 96 bc 3d 28 3a 3c ee cd 0b bd 24 86 80 40
       -0.018363485 0.011362133 -0.034131937 4.0163746
0001a0 bc c9 43 bc 92 d2 d1 be 46 26 88 3c dd 6c 56 40
       -0.011949953 -0.40980965 0.016619813 3.3503945
0001b0 87 66 66 3b 53 67 2c bd 7e 3d dc 3c c1 2e 9c b8
       0.0035156326 -0.042090725 0.02688479 -7.447368e-05
0001c0 fd 98 63 3c 45 0e 69 3f b4 6d ea 3b cf 61 3a bd
       0.013891456 0.910374 0.007154191 -0.045503434
0001d0 0f 24 ce c0 6a 20 e1 3e b8 27 9c bc db 25 e9 3d
       -6.4419017 0.43970042 -0.019061908 0.113841735
0001e0 5c c4 14 bd 93 2e 0e 3c a0 31 0f 3c e0 06 9e 3c
       -0.036320075 0.008678096 0.008739859 0.019290388
0001f0 1a 0f d3 40 7c ea c9 c0 f1 d0 65 ba 16 e4 bd 3b
       6.5955935 -6.3098736 -0.00087667914 0.005795012
000200 c8 54 3d bc a8 d2 85 ba bc 2f 71 3b 01 a6 81 c0
       -0.011555858 -0.0010209875 0.0036802134 -4.051514
000210 82 19 24 bd e3 1c e1 3d e2 ee ab 3e f9 23 96 bc
       -0.04006339 0.10991838 0.3358069 -0.0183277
000220 be 5d 47 3c 1f 57 1a bd af 20 8e 3a 8f 25 18 40
       0.012168346 -0.03768074 0.0010843481 2.3772924
000230 cc 66 2e 3c 6d 67 4d 3c 01 a0 8b 3c b6 73 32 bc
       0.010644626 0.012536866 0.01704407 -0.010891845
000240 3f ae 9f 40 8b 0e cd be d7 6d cc c0 23 f6 9f be
       4.9900203 -0.40050158 -6.388408 -0.31242475
000250 ac dd 0b bc 2d 15 83 3f 48 43 8d bc 32 ab c8 3b
       -0.008536737 1.0240837 -0.017243996 0.0061239237
000260 05 bb 68 bc 72 59 9c 40 54 fd b1 3b 88 32 92 bc
       -0.014204745 4.8859186 0.0054318104 -0.01784636
000270 5e e4 a5 3e b8 a9 26 3c 1d 75 5b bb 4a 76 43 3b
       0.32400793 0.0101723 -0.0033486553 0.0029825144
000280 4a aa cd c0 92 bb ce c0 f9 84 a7 bb 46 54 3a bb
       -6.4270372 -6.460397 -0.005112287 -0.0028431579
000290 ae 4b 06 3c e6 8b 04 bb 8c 43 fd 3b d6 9f b2 c0
       0.008196754 -0.0020224988 0.0077289995 -5.582011
0002a0 8b 10 07 bb 7e 10 78 3f 91 d9 e6 bb 49 a4 d4 40
       -0.0020609226 0.96900165 -0.007044979 6.6450543
0002b0 d0 8c 38 bc 36 dc 57 bd 14 b1 92 3c 26 7d 29 bc
       -0.011264041 -0.052700244 0.017906703 -0.010344779
0002c0 0b 96 9a 3d 8c 8a 83 bf e2 60 10 bc 59 af 20 bd
       0.0754815 -1.0276656 -0.008812161 -0.039229725
0002d0 58 d9 10 40 62 91 d6 3e 77 e0 b2 3b d9 e7 18 3d
       2.2632656 0.41907793 0.005458887 0.037330482
0002e0 f1 b9 60 bc a4 13 c6 bc 51 8d 79 3b b1 a7 d6 ba
       -0.013716207 -0.024179287 0.0038078616 -0.001637688
0002f0 7c df 8c 40 ec 08 44 40 dc 09 11 3b bc f5 8f 3c
       4.402281 3.0630445 0.002213112 0.01757323
000300 86 bf 49 bc e3 a6 9f bb 46 b6 0d 3c b3 60 10 c0
       -0.012313729 -0.0048721894 0.008649414 -2.255902
000310 0d d8 04 bd 6a 8a a8 3c a6 c0 df be ac 01 f8 3d
       -0.032432605 0.020573813 -0.43701667 0.12109694
000320 49 f8 13 3d 01 9c 05 bd fe 66 20 bc e5 b0 c1 bf
       0.036125455 -0.03261948 -0.00979018 -1.5132109
000330 69 de 80 bb 0e 5d 01 3d bd e5 18 bb c0 d8 ff 3b
       -0.0039327634 0.031582884 -0.0023330294 0.007807821
000340 c2 6b 98 40 4d 02 e4 3e 84 f4 76 c0 7b 14 f4 bd
       4.763154 0.44533005 -3.858674 -0.11917969
000350 6c be 20 bc f0 b2 72 c0 3e a7 a0 3c bc 5b 25 3b
       -0.009811025 -3.7921715 0.019610997 0.002523168
000360 c0 78 41 bb c0 63 cf 40 ea e0 39 bc 73 78 22 3d
       -0.0029521435 6.4809265 -0.011345128 0.03966565
000370 65 5d c7 3e 86 55 60 3a a0 38 81 3c 9f e1 73 3c
       0.38938442 0.0008557666 0.015774071 0.014885335
000380 62 db 68 c0 ba 97 4e 3f eb f4 8a 3b de 34 58 3b
       -3.63839 0.80700266 0.0042406223 0.0032990496
000390 37 5e cc 3a ca 88 d0 3c a2 cf 4f bd 07 b7 87 c0
       0.0015592043 0.025455851 -0.050735123 -4.241092
0003a0 c8 f2 2d bc 3c b4 c3 40 61 e0 4a bc 29 29 9a c0
       -0.010616966 6.1157513 -0.012382598 -4.8175244
0003b0 54 d4 e0 3b 40 f8 d7 bc 34 81 7c 3c fa d2 c9 3b
       0.006861249 -0.026363492 0.015411664 0.0061591836
0003c0 dd 85 b9 bd 43 c0 9b c0 96 94 4d 3b e5 4b a8 bc
       -0.090587355 -4.8672194 0.0031369082 -0.020544002
0003d0 d1 f8 b9 c0 2e 0d 66 bc 5c c1 56 3c 46 3a 04 be
       -5.811623 -0.014041228 0.013107624 -0.12912855
0003e0 82 42 ae 3c 31 ac c0 3a 24 3d f0 bb 97 bc bd 3b
       0.021271948 0.0014699755 -0.0073315073 0.005790304
0003f0 2b a0 b9 c0 80 a9 eb 3e c3 8f 10 bc f5 16 8c bc
       -5.8008018 0.46027756 -0.008823338 -0.01710079

arith.constant5 f4 [64]
000000 d6 ae 62 c0 d5 75 4e 3e 7b f9 49 40 63 0d 93 bf
       -3.5419211 0.20162137 3.155852 -1.148846
000010 68 bb f6 bf 52 47 4c bd b4 b7 e5 3e 24 cd 06 3f
       -1.9275942 -0.049872704 0.44866717 0.5265677
000020 0f 37 07 40 50 49 07 c0 c8 17 41 c0 66 01 be c0
       2.1127355 -2.1138496 -3.0170765 -5.9376707
000030 f9 76 12 40 c5 c5 8d 3f 43 c7 dc c0 2f 44 a4 bf
       2.2885115 1.107598 -6.899324 -1.2833308
000040 a9 d2 1e 40 86 b9 fa bf 7b 09 aa c0 a1 e0 fc bf
       2.4816077 -1.9587867 -5.3136573 -1.9756051
000050 7e ad b1 3f 0b 63 8e bf 44 5d e0 3e 63 2f d4 c0
       1.3881071 -1.1123976 0.43821156 -6.6307845
000060 b7 23 9a 3f 0d 28 48 3f ca 9d bd 3f db 93 7b bf
       1.2042149 0.7818611 1.4813778 -0.98272485
000070 93 bb 57 3f 77 6a 43 40 b2 92 50 bf 3f d8 02 c0
       0.8427059 3.053373 -0.8147384 -2.0444486
000080 a6 f5 10 c0 c7 70 0c 3f 04 d4 90 be 83 a6 fe bf
       -2.2649932 0.54859585 -0.28286755 -1.9894565
000090 c5 c2 00 40 e0 c1 4d 40 15 c5 60 3f 22 42 fa bf
       2.0118878 3.2149582 0.87800723 -1.9551432
0000a0 5a fb 7b bd e9 fc 16 bf cc 42 ef 3f fb 21 62 bf
       -0.061519004 -0.5897966 1.869226 -0.883331
0000b0 b4 fe 12 c0 89 ee 50 40 f4 c3 20 c0 9a 2e 50 3f
       -2.2967958 3.264559 -2.51196 0.8132111
0000c0 74 bd 12 40 b4 11 55 3f a5 3c 17 3e 29 f9 12 40
       2.2928133 0.8323014 0.14769228 2.2964575
0000d0 a1 35 07 c0 7b 4d 85 3e 73 2b b4 bf b8 de a2 bd
       -2.1126482 0.26035675 -1.407576 -0.079526365
0000e0 03 df da 3f bd 1f e7 3f 4d 5c 3c c0 08 53 2a 40
       1.7099308 1.8056561 -2.9431336 2.6613178
0000f0 43 4a 58 c0 37 f6 16 40 7e 1e 14 bf aa c2 05 bf
       -3.3795326 2.3587778 -0.5785903 -0.5225016

arith.constant6 f4 [64]
000000 37 e9 3f 38 8d b0 c9 36 a4 4e 44 3b 00 00 00 00
       4.5755147e-05 6.01082e-06 0.00299541 0.0
000010 02 4f b6 3b de 21 16 3c a2 4e d5 3a 9b 62 c9 3a
       0.0055636177 0.009163348 0.0016274045 0.001536447
000020 db 87 a5 35 cf c1 c4 b8 f7 b5 96 36 e8 d2 48 bc
       1.2332997e-06 -9.382108e-05 4.491532e-06 -0.012257315
000030 27 ac ef 36 38 9f c1 3b 33 19 2a bc 97 27 c1 bc
       7.142796e-06 0.005908873 -0.0103819845 -0.023578448
000040 00 00 00 00 d5 da a5 ba 53 ac 71 bc 8b ab 37 ba
       0.0 -0.0012653718 -0.014750558 -0.0007006458
000050 64 82 9c 37 c9 5e 28 bb a1 59 2b b7 2f 82 86 b6
       1.8657367e-05 -0.0025691262 -1.0213263e-05 -4.0086666e-06
000060 dc a3 2b bc 00 00 00 00 3c 10 8f 3b 25 a7 c4 b6
       -0.010476079 0.0 0.004365949 -5.8607134e-06
000070 47 19 32 bb f4 be e1 bb f7 d2 07 3b 91 38 57 3b
       -0.002717571 -0.0068892185 0.002072511 0.0032840113
000080 00 00 00 00 00 00 00 00 78 cc 5d b7 34 5c be 35
       0.0 0.0 -1.3220233e-05 1.4182938e-06
000090 e8 56 1c bb cf 2c 2f bc 50 3a 85 3c 00 00 00 00
       -0.002385551 -0.010691836 0.016263157 0.0
0000a0 76 14 89 3c 00 00 00 00 78 63 88 36 00 00 00 00
       0.01673339 0.0 4.0646955e-06 0.0
0000b0 26 f9 7d 3a 13 65 46 b8 15 ae f0 b6 83 a3 07 b7
       0.000968831 -4.730101e-05 -7.172823e-06 -8.084698e-06
0000c0 21 ee d7 ba 00 00 00 00 c3 70 8c b6 8c 6d 40 3a
       -0.0016474166 0.0 -4.1854523e-06 0.00073405425
0000d0 00 00 00 00 b6 f7 c7 3a 4b a1 21 37 ce ce 96 3a
       0.0 0.0015256319 9.633902e-06 0.0011505724
0000e0 74 bd 6a bb 38 b5 89 b7 33 d1 79 36 b8 13 1e 3a
       -0.003581849 -1.641606e-05 3.7225661e-06 0.000603016
0000f0 00 00 00 00 00 00 00 00 46 32 35 37 1c 32 0b b7
       0.0 0.0 1.0800146e-05 -8.296713e-06

sequential_1/dense_1/MatMul f4 [64, 8]
000000 5a c4 82 3e 7b 39 8c 3e 8d 8d 56 3e 01 0d 44 3e
       0.2554043 0.27387604 0.20952435 0.19145586
000010 81 c4 e8 bd 05 d2 37 be 82 30 5e bd 80 50 18 3e
       -0.11365605 -0.1795121 -0.05424548 0.14874458
000020 df cc 39 3e c1 21 60 3e 63 8f c7 bd 2b b5 3a 3e
       0.18144558 0.21887876 -0.09744146 0.18233173
000030 70 af 57 3e 18 04 03 3e 86 94 5a be 76 bd 7c be
       0.21063018 0.1279453 -0.2134572 -0.24681649
000040 42 a8 01 bd 43 55 96 bd 99 b7 44 be bc 8d 9e bd
       -0.031654604 -0.07340481 -0.19210662 -0.077418774
000050 1c a9 8a 3e 25 dc 34 bd d9 92 fa bd f7 27 15 3e
       0.27082145 -0.04415526 -0.1223504 0.14566027
000060 04 34 80 be fe 7a 5f be e3 09 00 be db 9b 3a be
       -0.25039685 -0.21824262 -0.12503771 -0.18223517
000070 04 4e 87 3d 2e d5 8c 3e 57 bd 04 be ff 97 56 be
       0.06606677 0.27506393 -0.12962852 -0.2095642
000080 4e 63 1a be 62 74 1e 3e 8a d1 77 bd cd 9c 10 3d
       -0.15076944 0.15474084 -0.060502566 0.035305787
000090 e3 80 c4 bc 32 e3 25 be 05 5c 72 be cc 0e 2c be
       -0.02398724 -0.1619995 -0.23667915 -0.1680252
0000a0 1a 3c 01 3e d3 38 80 3d 52 73 ee 3d fd e4 e6 3d
       0.12620583 0.06260838 0.11643089 0.11274145
0000b0 89 a9 ec bd 22 f7 8b be 1c a0 93 3d 32 a7 be 3c
       -0.11555774 -0.27336985 0.07208273 0.023273084
0000c0 56 f2 3f 3e 05 a3 91 be 21 ce 5e 3d 1f d4 70 3e
       0.18744788 -0.28444687 0.0543958 0.23518418
0000d0 dc 20 fb 3d e8 e2 70 be ec 3e 63 3e 33 b4 61 bd
       0.12262127 -0.23524058 0.22191972 -0.055103492
0000e0 37 01 58 be 5c 30 4b be 86 92 91 bd f6 cf 8b 3e
       -0.21094213 -0.19842666 -0.07108025 0.273071
0000f0 79 7d 77 3c 33 2f 8d 3e fa 81 50 be 00 17 1c 3e
       0.015105599 0.27575073 -0.20362082 0.15243149
000100 98 9b 16 3d 4f 7e cc 3d 61 11 b7 3d 19 46 65 be
       0.03676948 0.09985029 0.08938862 -0.22390021
000110 b1 22 e9 3c 50 ba d5 b9 40 c4 b7 bd 13 14 05 bc
       0.028458925 -0.0004076534 -0.089729786 -0.008122462
000120 56 8c 84 bd 71 ed 76 3e 1b ec 64 3e 62 49 91 be
       -0.064720795 0.24114014 0.22355692 -0.283763
000130 ac 5b 8d be 1f 3a 37 be 1c 1a 59 be 68 30 93 be
       -0.27609003 -0.17893265 -0.21201366 -0.2874787
000140 5f 02 44 3d 5a be 22 3c a3 b4 15 bd 20 b2 c5 3d
       0.047853824 0.009933079 -0.03654922 0.09653115
000150 a5 95 91 3e b8 88 69 3e 78 4b 5e be ad e2 40 3d
       0.28434482 0.2280606 -0.21708477 0.047091175
000160 d8 01 3a 3e ab e4 90 be 02 96 77 3e 5a ee a8 3d
       0.18164766 -0.2829946 0.24178317 0.08248587
000170 52 fe 07 be fb 47 7c be 12 fc 47 3e 52 1a c7 3d
       -0.13280609 -0.24636833 0.19529751 0.09721817
000180 ab 10 8b 3e 55 6e 16 be de 5a 96 3e 7d 68 e8 bd
       0.27161154 -0.14690526 0.293662 -0.113480546
000190 d2 8e 29 3e ac bb 8d 3e df f8 00 3c ce 0d 21 bd
       0.16558388 0.27682245 0.0078718355 -0.039319806
0001a0 c2 27 c2 3c 33 a3 d3 bc 13 4a 3d 3e fa 77 2c 3e
       0.023700599 -0.025834655 0.18485288 0.16842642
0001b0 5d b9 02 be ef ed 14 bc 36 cb 2e 3e 09 dc a8 3d
       -0.12766023 -0.009089931 0.17069706 0.082450934
0001c0 5c f1 dd bd d4 85 85 3e 2a 59 97 be 7e 5d 96 3d
       -0.10837051 0.26078665 -0.29560214 0.07342051
0001d0 56 3e 44 bc 90 6c 00 3d 1c a2 ab 3e 6a b6 a7 3d
       -0.011977753 0.031353533 0.33522117 0.081890896
0001e0 45 b6 bb bd 12 02 d9 3d 63 a1 6d bb b0 b1 3d be
       -0.091656245 0.10596098 -0.0036259524 -0.18524814
0001f0 aa 39 b6 3d 6b 4e 5d be 5e 4b 7b be 59 2b 83 be
       0.08897717 -0.21611945 -0.24540469 -0.2561901
000200 e0 a2 a4 bc dc da a6 bd be 05 04 be 66 59 49 3e
       -0.020097196 -0.08147213 -0.12892815 0.19663009
000210 ac 83 48 be a4 32 42 3e 3e a9 35 3e e4 c7 19 3e
       -0.19581479 0.1896463 0.17740342 0.15017658
000220 fe 85 33 3e 4c f9 12 bd aa d4 7d bd ec 7c 3e 3e
       0.17531583 -0.03588228 -0.06197039 0.18602341
000230 d1 b1 1d be b1 fe 6b bc 83 51 5f be b0 0b 86 3e
       -0.15399863 -0.014403985 -0.21808438 0.26180792
000240 62 4f bd 3d f1 43 93 be 89 ee b3 3d 09 ef d7 3d
       0.09243657 -0.28762773 0.08785731 0.10543639
000250 71 d1 d2 bd e9 3e 4c 3e 7c 4e 89 3e 7d dc ad 3d
       -0.10293854 0.19945873 0.2681769 0.084893204
000260 c8 6e 87 be a1 af 4b be eb 6b 38 bd fd ee 17 3d
       -0.26451707 -0.19891216 -0.045024794 0.03709315
000270 3e c2 a8 3d 25 88 20 3e 18 60 be bc 60 8e 5a bd
       0.08240174 0.15676935 -0.02323918 -0.053358436
000280 cb 37 99 3e ed e8 19 3d be b6 0c bd 02 79 67 3e
       0.2992538 0.03757565 -0.034353964 0.22604755
000290 38 44 2a 3e 7f 41 a9 bd 6f 95 5e 3e da 52 e7 bd
       0.16627586 -0.082644455 0.21736692 -0.112950996
0002a0 a8 1c cb 3d 62 62 01 3c eb a2 39 3e 7c 6a 92 be
       0.09917575 0.007896991 0.18128555 -0.28596866
0002b0 fe 5d dc bd e2 ab 90 be 92 e3 5c 3e 7a d9 b0 bc
       -0.10760115 -0.28256136 0.21571186 -0.021588076
0002c0 97 b7 e1 3d 4d 40 f2 3c 25 08 17 be 1f 66 66 3e
       0.11021345 0.029571677 -0.147492 0.22499894
0002d0 af f4 09 3e b3 5b 90 3e b1 2b 14 3e f3 5a 2a 3e
       0.13472246 0.2819496 0.14469792 0.16636257
0002e0 fe 1c 78 be 8d 5a 05 3e a5 01 b0 3d 24 c5 9a 3e
       -0.2422981 0.13022824 0.08594064 0.3022853
0002f0 cd b8 08 3e d7 ef 6c 3e 8c 1c 14 3e 8f f4 0f be
       0.13351746 0.23138367 0.14464015 -0.14058135
000300 5f 13 78 be 13 f6 1c 3e dc 7a 47 3e cd 0b 4c be
       -0.2422614 0.15328245 0.19480461 -0.19926377
000310 eb 6c 7e be 90 9d 90 3e 94 f3 7d 3e 8f 55 e5 bd
       -0.24846236 0.2824521 0.24799949 -0.1119796
000320 00 8d 96 bc 3c a6 a1 3d ec 6f 23 be 15 5b 1f be
       -0.01837778 0.07893035 -0.15960664 -0.15562089
000330 12 d4 4d be 32 df 61 be e8 1e 99 bd c8 9c 74 be
       -0.2010043 -0.22057799 -0.07476598 -0.23887932
000340 29 f3 81 3e 2a 59 41 3e 93 80 64 bd e0 08 37 bd
       0.2538083 0.1888167 -0.05578668 -0.0446862
000350 f8 bc 9b bd f9 5b 90 3b c7 4d 9e 3e 27 4d 7a 3e
       -0.07604402 0.0044054952 0.30918714 0.24443494
000360 0e a5 70 bd eb 8c df 3d c7 55 5b 3e c3 61 89 be
       -0.05875116 0.1091555 0.2141944 -0.268324
000370 44 48 ad 3b 16 b1 3a 3e 33 db 67 be 21 41 d3 3a
       0.0052881557 0.18231615 -0.22642212 0.0016117432
000380 c6 8f c4 3c 9a cc b1 bd 6e 61 26 3d 54 ae 19 be
       0.023994338 -0.08681603 0.04062026 -0.15007907
000390 b7 3c 51 3d fa 94 80 be b7 c1 54 bd 91 88 27 3e
       0.051083293 -0.2511366 -0.051942553 0.1636069
0003a0 01 11 81 3e 75 17 23 be 72 ad a7 bd 7c 89 2e be
       0.25208285 -0.15926917 -0.08187379 -0.17044634
0003b0 19 6b 52 3e ea 2d 62 3c 3c 2b 1e be 37 e6 87 3e
       0.20548667 0.013804892 -0.1544618 0.26542827
0003c0 c4 d8 e7 3c af 60 fa 3d c6 5a 59 be f1 96 8e be
       0.028301604 0.12225472 -0.21226034 -0.27849534
0003d0 36 7a da 3c b1 b0 9c 3d 8d cc e9 3c ac c5 c9 3d
       0.026669603 0.07650889 0.02853992 0.09852156
0003e0 93 d0 40 3e 5e 1c 97 bd f7 d1 20 be 14 fe bf 3d
       0.18829565 -0.073784575 -0.15705095 0.093746334
0003f0 4e 44 33 3e a2 9f 9a 3e 33 40 71 be c1 ee 1c 3e
       0.17506525 0.30199915 -0.23559646 0.15325452
