DSA/diabetes_modified.csvmodel2.tflite (tflite, 30072 bytes, 7 tensors)

arith.constant f4 [1, 32]
-0.15039758 0.08002938 -0.108078435 0.57682014 1.1897105 0.49717903 -0.53729326 -0.23132421
0.111879185 -0.45555705 -0.03387295 0.29677314 0.5151484 -0.37817636 0.10169432 0.5217666
-0.55687135 -0.48395976 -0.4907976 -0.06672369 0.069088444 0.6621245 0.6002871 -0.5093363
0.38309324 -0.35631213 -0.2148497 -0.2090618 -0.8987142 -1.2679584 0.07286113 -0.28882733
00000000: d301 1abe 72e6 a33d 3a58 ddbd 7caa 133f
00000010: 6f48 983f 408e fe3e 0d8c 09bf 41e0 6cbe
00000020: ea20 e53d c63e e9be 5dbe 0abd a6f2 973e
00000030: c4e0 033f 55a0 c1be 1d45 d03d 7f92 053f
00000040: 1f8f 0ebf 93c9 f7be d349 fbbe 6ea6 88bd
00000050: 3e7e 8d3d fe80 293f 6aac 193f dd63 02bf
00000060: cc24 c43e 8b6e b6be 8f01 5cbe 4c14 56be
00000070: 2212 66bf 764c a2bf 3738 953d 2de1 93be

arith.constant2 f4 [32, 64]
-0.3897578 0.52316993 0.14654155 0.2089615 0.26368317 -0.28117397 -0.33049905 -0.25570264
0.18584318 0.31297758 -0.012138835 -0.13350268 -0.14334336 0.4300864 0.83318585 0.33949858
0.13488995 -0.012634204 -0.019239664 -0.7924551 0.05093783 0.72463804 0.5109903 -0.28879634
-0.033320498 -0.7253042 -0.42721882 0.28290254 0.55880386 0.3079881 0.5634827 0.22895291
-0.28746647 0.28271183 -0.31400302 -0.019865107 -0.034865066 -0.6142341 -0.023789292 -0.20681939
-0.3498888 -0.8230523 0.09035625 0.29054832 -0.1818905 -0.1533113 0.8808383 0.14417809
0.06118472 -0.5363856 -0.0207537 -0.47565338 0.622311 0.28353584 0.123726055 -0.081631295
-0.24650326 0.94819766 0.18572064 -0.286127 0.5389111 0.54230386 -0.0942747 0.32667315
-0.24349108 0.36796406 -0.09893253 0.14950447 -0.3881468 0.026543912 0.5598785 0.35602304
-0.28802493 -0.55838966 0.21809664 0.04220919 0.5673954 -0.29413867 -0.03691894 0.4817856
-0.1659132 0.30324778 0.7168273 0.33664498 -0.11346736 -0.14634794 0.61221486 0.41007105
-0.36794794 0.5085493 -0.710907 -0.4136746 -0.49165502 0.37145364 0.23854986 -0.36188084
0.091835 0.0894032 0.43969443 0.47082484 0.07052491 0.84171575 0.5919182 -0.052469928
-0.73856753 -0.33548427 -0.18480489 -0.19006836 0.06460566 0.34194192 0.0332213 -0.30887356
0.33340704 -1.4479872 -0.11647398 -0.17429566 0.4009796 -0.15735011 0.17013945 -0.8744809
-0.0038519313 0.019033393 0.33762 0.041469846 -0.13487425 0.1282498 0.4632681 0.3836696
-0.21954216 -0.16093339 0.2287143 0.24051218 -0.25735626 -0.60935634 -0.58729994 0.36635047
-0.059725396 -0.17318083 0.13965672 -0.070238635 0.7059455 0.3939699 -0.9559216 -0.5283188
0.11716539 0.26784465 -0.5185678 0.66275847 -0.4490151 0.18252864 -0.01032621 -0.42022812
-0.41739962 -0.3567634 0.6839097 -0.37163827 -0.6039475 -0.51126724 0.347025 0.37707984
0.28382397 -0.14798214 -0.44261333 -0.40023887 0.48918715 0.14671254 0.47023076 0.10490578
-0.62378263 -0.064475305 -0.11783817 0.24421152 0.20305917 -0.47102273 0.9919837 0.98220474
-0.13156842 -0.022666974 0.042549904 0.41932982 0.32271355 0.33352178 0.27299 0.40116817
-0.010396924 -0.7454689 0.030055916 0.021694593 0.5265139 0.05562882 -0.32138342 0.4799904
0.46445382 0.446382 -0.2709306 -0.027543109 -0.0066396147 -0.5074364 -0.44465008 0.42705104
-0.028515255 0.63225985 0.1337613 -0.09371237 -0.038433045 -0.3205975 0.38718668 0.1968357
0.25608212 -0.45093665 0.25182676 -0.3061023 -0.19769321 0.310203 -0.39975503 -0.15973726
-0.52075475 0.59258103 -0.10643276 -0.9977521 0.5142902 -0.30122584 0.1654513 0.4214634
-0.17833053 0.2585811 -0.46784636 0.34382433 0.33329958 -0.6760411 0.54686 0.19754246
-0.26896438 -0.71074456 -0.3198041 0.5316926 0.36292833 0.16757852 0.98482233 -0.05674112
0.28486153 0.64469385 0.23027034 0.121691436 0.03530046 -0.03703517 0.51443624 0.40053108
-0.13150047 0.7073192 0.1038924 0.074860975 0.46555132 0.52268296 0.18934485 -0.50582767
00000000: 568e c7be 77ee 053f fd0e 163e 01fa 553e
00000010: 7b01 873e 09f6 8fbe 2c37 a9be 75eb 82be
00000020: ad4d 3e3e 993e a03e f7e1 46bc edb4 08be
00000030: 9ac8 12be 4934 dc3e ab4b 553f c2d2 ad3e
00000040: 9720 0a3e b1ff 4ebc 809c 9dbc 56de 4abf
00000050: 30a4 503d e181 393f 43d0 023f 1ddd 93be
00000060: 137b 08bd 89ad 39bf 6dbc dabe 9ad8 903e
00000070: c50d 0f3f 9eb0 9d3e 6740 103f a272 6a3e
00000080: ce2e 93be 9bbf 903e 01c5 a0be 26bc a2bc
00000090: acce 0ebd 723e 1dbf c3e1 c2bc 76c8 53be
000000a0: a024 b3be 8eb3 52bf b30c b93d c0c2 943e
000000b0: 8141 3abe a3fd 1cbe 9e7e 613f 6ca3 133e
000000c0: d49c 7a3d 9150 09bf aa03 aabc d788 f3be
000000d0: c64f 1f3f 9c2b 913e 1664 fd3d 4f2e a7bd
000000e0: 5a6b 7cbe 15bd 723f 8d2d 3e3e 3d7f 92be
000000f0: 14f6 093f 6dd4 0a3f 1813 c1bd b441 a73e
00000100: ba55 79be c965 bc3e 239d cabd b317 193e
00000110: 2dbb c6be 9e72 d93c 3354 0f3f a748 b63e
00000120: 0178 93be a0f2 0ebf ba54 5f3e 8be3 2c3d
00000130: d340 113f 5899 96be 5038 17bd 9aac f63e
00000140: 26e5 29be 4b43 9b3e fe81 373f bb5c ac3e
00000150: 9361 e8bd 3cdc 15be 1dba 1c3f d5f4 d13e
00000160: ac63 bcbe 4930 023f 00fe 35bf 28cd d3be
00000170: 35ba fbbe 2c2f be3e 6a46 743e 7248 b9be
00000180: fd13 bc3d 0619 b73d a11f e13e f40f f13e
00000190: 5d6f 903d af7a 573f f387 173f b5ea 56bd
000001a0: c312 3dbf 98c4 abbe 7e3d 3dbe 48a1 42be
000001b0: f94f 843d 0313 af3e 0f13 083d ad24 9ebe
000001c0: 54b4 aa3e a557 b9bf e989 eebd 907a 32be
000001d0: 334d cd3e 6320 21be 0939 2e3e fbdd 5fbf
000001e0: af70 7cbb ebeb 9b3c 87dc ac3e 49dc 293d
000001f0: 7a1c 0abe ea53 033e 7a31 ed3e 5870 c43e
00000200: a9cf 60be b9cb 24be 1534 6a3e d348 763e
00000210: 33c4 83be c7fe 1bbf 4a59 16bf 4a92 bb3e
00000220: 9ea2 74bd 5156 31be 2c02 0f3e 46d9 8fbd
00000230: d8b8 343f 6cb6 c93e 47b7 74bf e73f 07bf
00000240: 68f4 ef3d ef22 893e dcc0 04bf 8aaa 293f
00000250: 4fe5 e5be cae8 3a3e 442f 29bc 2428 d7be
00000260: 67b5 d5be b1a9 b6be b514 2f3f 5f47 bebe
00000270: 4e9c 1abf 69e2 02bf 43ad b13e 9c10 c13e
00000280: 6051 913e a188 17be 379e e2be 1cec ccbe
00000290: bd76 fa3e d03b 163e 16c2 f03e d7d8 d63d
000002a0: 38b0 1fbf a10b 84bd 2355 f1bd 9612 7a3e
000002b0: beee 4f3e e429 f1be a5f2 7d3f c571 7b3f
000002c0: dfb9 06be 17b0 b9bc cf48 2e3d 66b2 d63e
000002d0: b63a a53e 5ec3 aa3e 58c5 8b3e ea65 cd3e
000002e0: dc57 2abc 0dd7 3ebf d337 f63c dcb8 b13c
000002f0: 9dc9 063f 0cdb 633d 5e8c a4be 4dc1 f53e
00000300: e4cc ed3e 2e8c e43e 6ab7 8abe 16a2 e1bc
00000310: 2091 d9bb 5ae7 01bf 2da9 e3be 6fa6 da3e
00000320: d398 e9bc c8db 213f b9f8 083e 45ec bfbd
00000330: f86b 1dbd 5b25 a4be 553d c63e 4c8f 493e
00000340: 321d 833e 2be1 e6be 70ef 803e 71b9 9cbe
00000350: 1770 4abe edd2 9e3e b1ac ccbe 2a92 23be
00000360: 2f50 05bf 64b3 173f 6bf9 d9bd ae6c 7fbf
00000370: 86a8 033f 463a 9abe 116c 293e 0dca d73e
00000380: 479c 36be be64 843e 8f89 efbe be09 b03e
00000390: 3ea6 aa3e 0811 2dbf 04ff 0b3f 9248 4a3e
000003a0: b3b5 89be 5bf3 35bf 5dbd a3be 021d 083f
000003b0: bed1 b93e b499 2b3e 511d 7c3f 6069 68bd
000003c0: 5fd9 913e a80a 253f fdcb 6b3e 5c39 f93d
000003d0: 3797 103d 31b2 17bd 18b2 033f 6912 cd3e
000003e0: 0fa8 06be df12 353f 8ac5 d43d b650 993d
000003f0: be5c ee3e 8dce 053f 9ee3 413e ec7d 01bf

arith.constant3 f4 [32]
-0.7872223 -0.9259088 0.13058674 -1.298302 0.32030308 -0.32070395 -0.36982983 -1.4174244
0.23865771 1.2595268 0.71080106 -0.046991147 -0.48735213 0.14084245 -0.6132135 -1.8137907
-1.3133436 -0.6044915 -0.027901022 -1.0775241 0.68062824 0.2612808 1.6962407 -1.0963932
0.063362926 -0.8390894 -0.49358374 -0.48399466 -0.23028772 0.5694467 -0.28935945 -0.103680424
00000000: 6787 49bf 5c08 6dbf 88b8 053e c32e a6bf
00000010: c4fe a33e 4f33 a4be 565a bdbe 2a6e b5bf
00000020: b062 743e 2d38 a13f 0ff7 353f ca79 40bd
00000030: 3886 f9be 0139 103e 8ffb 1cbf 4b2a e8bf
00000040: a51b a8bf f4bf 1abf af90 e4bc 4fec 89bf
00000050: a73d 2e3f 99c6 853e 6a1e d93f 9d56 8cbf
00000060: 6cc4 813d 90ce 56bf 02b7 fcbe 26ce f7be
00000070: 8bd0 6bbe 42c7 113f ec26 94be 6756 d4bd

arith.constant4 f4 [64, 64]
-0.015985025 -5.1782565 -0.015595408 -0.5846899 -1.4873208 0.01706339 5.9893565 0.0011287691
-0.046405446 4.708673 0.30659652 -0.0038416516 0.0072896276 0.0017860171 -0.017735174 0.011546194
0.03971873 6.1984506 -0.59595215 0.010516375 0.0036128843 -6.3552413 -0.0040175333 -1.7612306
1.586566 -3.4985244 -0.028519887 -0.45828608 0.021378871 0.0032054458 0.7938404 -0.02535637
0.0311803 -0.29060298 0.011321624 -6.091954 -0.0024732824 0.015772793 0.0075078686 -1.2835379
3.1100013 -0.015516869 -0.1900922 -0.075802036 5.5404124 -6.660934 -2.5843763 0.005604347
0.014153719 -0.017628644 -0.02709391 -0.546948 0.013140129 -0.30913377 -0.009095049 0.10487629
-0.011209991 5.3792424 -0.0023118376 -0.0061499174 0.012592021 -0.009241705 0.09533257 -0.022171963
-0.013344662 -0.6750655 -0.0133418245 8.320262 4.684058 0.01215588 -1.6918958 0.0052319085
-0.03234257 3.2757468 -0.32506284 -0.011967309 -0.0024440216 0.00017143863 0.0015979849 -0.020540899
-0.013437558 5.921809 6.916805 -0.016248377 0.0030036257 6.975976 0.0077020805 4.9350348
4.095273 -4.3997045 -0.006551854 -0.27530777 -0.022150949 0.014934347 -0.5405031 0.0374
0.17488603 7.6502514 -0.015083481 -4.8482013 0.0178208 0.023106484 -0.0052214274 -3.8443525
1.8924525 -0.017526837 -0.123985924 0.03902867 -1.9359542 1.2496325 -5.5147686 0.03197826
0.0210437 -0.0056673842 -0.0030204353 1.655106 -0.009466839 0.1705595 0.0048319222 -0.031032119
0.012175368 -8.22366 -0.007687308 0.015355902 -0.016723718 -0.009884227 0.024618668 -0.022953179
-0.0133884605 -3.683552 -0.014061759 4.7505455 4.6918416 -0.014409741 -2.9606383 0.0043046987
-0.055649478 5.7115736 0.19080313 0.026290702 -0.0070584062 -0.0052854996 0.037676986 -0.026799
0.031591825 -4.571785 0.5930014 0.009449158 0.008592969 5.033921 -0.0029547128 -6.8307424
6.2780366 6.053894 0.010794658 -0.64752686 0.026158016 0.017850475 0.4572521 0.029775579
-1.7444118 2.354223 0.014568608 0.29812968 0.0108201485 0.026919926 -0.0033051993 0.7798202
-5.633666 -0.014959913 -0.17470464 -0.034575332 -5.6281176 -6.123217 5.2258754 -0.013232833
0.021214547 0.0013851774 0.02647474 1.5433136 -0.031401925 0.00012717457 0.022387732 -0.0037527839
0.0018681522 3.4229028 0.010119288 0.022895787 0.025524093 -0.0017757386 0.0049956036 -0.0386723
0.0048449035 -5.51402 -0.022097126 3.3786914 -5.2105613 0.045833945 5.441049 0.0073234946
0.060353685 3.3274798 -0.26747087 -0.024921896 0.00599097 0.007241674 0.008287123 -0.004046616
-0.0077643446 -0.066048354 1.3652384 0.0013351972 0.008442309 3.515898 -0.0076897307 2.14871
0.8723752 6.074067 0.0361378 -0.12230748 0.026160508 -0.0063589974 0.13785055 0.053967208
2.336601 -5.7428412 0.013031873 -3.9636283 0.028107455 0.018717185 -0.00995941 -6.163141
2.2979312 0.0018783411 -0.08454069 -0.0049426924 3.057467 -1.9032586 1.1667017 -0.013538188
-0.0089125205 -0.013581929 0.031168254 1.3576869 0.027873477 0.15133952 -0.029920336 -0.09206876
-0.0006500579 -3.1878135 0.0045010243 -0.027178029 -0.015964687 0.0042748903 -0.013044016 0.013685625
00000000: 07f3 82bc 47b4 a5c0 e283 7fbc 3dae 15bf
00000010: 8760 bebf 86c8 8b3c cfa8 bf40 35f3 933a
00000020: a313 3ebd 73ad 9640 38fa 9c3e 38c4 7bbb
00000030: d4dd ee3b ca18 ea3a 5b49 91bc 3f2c 3d3c
00000040: 1bb0 223d b559 c640 5290 18bf e04c 2c3c
00000050: 24c6 6c3b 235e cbc0 83a5 83bb 0170 e1bf
00000060: 9814 cb3f d3e7 5fc0 8aa2 e9bc 79a4 eabe
00000070: be22 af3c 7512 523b 2039 4b3f 29b8 cfbc
00000080: d46d ff3c eac9 94be 557e 393c 4af1 c2c0
00000090: cb16 22bb f235 813c 9104 f63b f84a a4bf
000000a0: 430a 4740 773a 7ebc 88a7 42be 193e 9bbd
000000b0: 0f4b b140 5f26 d5c0 6c66 25c0 aca4 b73b
000000c0: 00e5 673c f269 90bc 0cf4 ddbc c904 0cbf
000000d0: b249 573c c846 9ebe 6703 15bc 61c9 d63d
000000e0: 1caa 37bc c122 ac40 3382 17bb 3f85 c9bb
000000f0: c44e 4e3c 856a 17bc b93d c33d faa1 b5bc
00000100: 92a3 5abc 18d1 2cbf ab97 5abc cb1f 0541
00000110: cee3 9540 7529 473c 0b90 d8bf 6e70 ab3b
00000120: a579 04bd d6a5 5140 a36e a6be 8812 44bc
00000130: e12b 20bb 35c4 3339 7a73 d13a 6345 a8bc
00000140: 3429 5cbc 767f bd40 7756 dd40 511b 85bc
00000150: 7ad8 443b 323b df40 bc61 fc3b ceeb 9d40
00000160: 7a0c 8340 61ca 8cc0 efb0 d6bb 24f5 8cbe
00000170: e875 b5bc 31af 743c 695e 0abf be30 193d
00000180: 5315 333e dcce f440 b420 77bc 7724 9bc0
00000190: edfc 913c cf49 bd3c 8218 abbb df09 76c0
000001a0: e23b f23f 7194 8fbc 55ec fdbd 87dc 1f3d
000001b0: 59cd f7bf f5f3 9f3f fc78 b0c0 a3fb 023d
000001c0: d663 ac3c 77b5 b9bb 7ff2 45bb 83da d33f
000001d0: cd1a 1bbc 26a7 2e3e 1a55 9e3b 1237 febc
000001e0: 327b 473c 1d94 03c1 d0e5 fbbb 5297 7b3c
000001f0: 2e00 89bc 74f1 21bc 17ad c93c 4e08 bcbc
00000200: 465b 5bbc 51bf 6bc0 4b63 66bc 7804 9840
00000210: 9123 9640 d616 6cbc 197b 3dc0 6e0e 8d3b
00000220: b5f0 63bd 36c5 b640 e561 433e 995f d73c
00000230: 344a e7bb fc31 adbb 2f53 1a3d 9489 dbbc
00000240: 6e66 013d 104c 92c0 f1ce 173f a4d0 1a3c
00000250: 86c9 0c3c e115 a140 dba3 41bb 7195 dac0
00000260: ade5 c840 80b9 c140 14dc 303c 52c4 25bf
00000270: 5649 d63c 293b 923c f21c ea3e eaeb f33c
00000280: e348 dfbf 97ab 1640 2cb1 6e3c 74a4 983e
00000290: fe46 313c 2d87 dc3c 0b9c 58bb 4ca2 473f
000002a0: fe46 b4c0 6c1a 75bc c6e5 32be dd9e 0dbd
000002b0: 8a19 b4c0 65f1 c3c0 5f3a a740 86ce 58bc
000002c0: 21ca ad3c d78e b53a 8ee1 d83c 4d8b c53f
000002d0: 4e9f 00bd 2a5a 0539 7a66 b73c 44f1 75bb
000002e0: c9dc f43a d710 5b40 5fcb 253c f28f bb3c
000002f0: e717 d13c e6bf e8ba 29b2 a33b d866 1ebd
00000300: ffc1 9e3b da72 b0c0 0805 b5bc 7b3c 5840
00000310: ebbc a6c0 60bc 3b3d 131d ae40 edf9 ef3b
00000320: 6d35 773d 6ef5 5440 f1f1 88be 0129 ccbc
00000330: e64f c43b 904b ed3b b7c6 073c 7a99 84bb
00000340: 0b6c febb 5c44 87bd 22c0 ae3f c901 af3a
00000350: 9c51 0a3c 7904 6140 23fa fbbb 7784 0940
00000360: fb53 5f3f c25e c240 3b05 143d 587c fabd
00000370: 904e d63c 235f d0bb b228 0d3e b80c 5d3d
00000380: df8a 1540 5bc5 b7c0 a383 553c 16ac 7dc0
00000390: 9b41 e63c c854 993c cb2c 23bc 7338 c5c0
000003a0: 4e11 1340 ab32 f63a ab23 adbd 4ff6 a1bb
000003b0: 8aad 4340 fa9d f3bf 7b56 953f 47cf 5dbc
000003c0: d205 12bc bd86 5ebc 9154 ff3c afc8 ad3f
000003d0: eb56 e43c bff8 1a3e 7e1b f5bc 8c8e bcbd
000003e0: a668 2aba 2305 4cc0 547d 933b 75a4 debc
000003f0: 60c8 82bc 6114 8c3b 92b6 55bc ac39 603c

arith.constant5 f4 [64]
1.8334424 1.1470575 -1.7195414 -3.1530962 0.68198055 0.49876726 -3.1021307 -1.8642412
2.114412 3.7524297 1.3187712 0.7430093 -0.1934676 -2.0190082 2.582638 0.20830618
2.1704347 2.7508948 -2.60189 0.019210534 4.723258 0.84296745 -2.1671708 2.1057246
-0.28102207 -2.6675937 1.6512051 -0.012557595 -3.770308 0.08503124 1.0334516 -2.7588158
-0.3221536 -0.5480003 0.2921968 -3.7441688 0.30472624 0.78702164 0.66361624 -2.873276
1.7586943 -1.164377 3.2746089 -0.028068075 -1.2014337 3.3641024 0.030305326 1.9803653
-3.718271 0.80785257 1.6853163 -0.28573647 0.32532436 1.9767835 1.3609276 1.4265372
5.378723 1.5271118 -4.1762633 -3.7705212 -2.9410024 3.1998904 1.883945 0.23378354
00000000: 3eae ea3f c8d2 923f ef19 dcbf 54cc 49c0
00000010: 4796 2e3f 6c5e ff3e 4f89 46c0 759f eebf
00000020: 8752 0740 cf27 7040 7fcd a83f dc35 3e3f
00000030: 5f1c 46be 6e37 01c0 f149 2540 374e 553e
00000040: 67e8 0a40 a90e 3040 5e85 26c0 695f 9d3c
00000050: ee24 9740 b7cc 573f edb2 0ac0 31c4 0640
00000060: 20e2 8fbe dbb9 2ac0 b05a d33f 5fbe 4dbc
00000070: ba4c 71c0 dc24 ae3d 2448 843f 7090 30c0
00000080: 51f1 a4be bf49 0cbf d29a 953e 76a0 6fc0
00000090: 1405 9c3e 407a 493f c1e2 293f c1e3 37c0
000000a0: e51c e13f 4e0a 95bf 3193 5140 05ef e5bc
000000b0: 94c8 99bf 744d 5740 e042 f83c 9c7c fd3f
000000c0: 27f8 6dc0 6dcf 4e3f 72b8 d73f 0d4c 92be
000000d0: ea90 a63e 3e07 fd3f e032 ae3f c598 b63f
000000e0: 801e ac40 6678 c33f f3a3 85c0 3850 71c0
000000f0: 6239 3cc0 01cb 4c40 1c25 f13f f464 6f3e

arith.constant6 f4 [64]
-8.170849e-06 -0.0009226627 -0.0090751005 0.0 0.0 -0.0014536481 0.0 9.545329e-06
0.0007976244 0.0 0.0026795059 0.008664878 -9.743356e-06 4.110836e-07 0.009896954 0.0057303105
0.0012971532 -0.0100040585 0.0 0.009700506 -2.8474396e-06 0.0 -2.786531e-06 0.0
0.0 0.0 -0.002356851 -0.00036263865 0.012584732 -3.8174394e-06 -0.0028149993 -0.00010205083
0.0 0.0 1.5611338e-05 0.0 7.82699e-06 0.0056405766 -2.322051e-06 0.0
0.0 0.005499804 0.004094785 0.002067528 0.0 0.0 0.0 -8.77098e-06
-0.02278101 0.015180636 -2.2767927e-05 0.0 0.0138921775 -0.0068587987 1.10243955e-05 0.009963603
-6.034147e-05 0.0 0.003878323 0.019261505 -0.015532773 -9.311528e-07 0.011271138 -6.0209613e-06
00000000: 8715 09b7 d8de 71ba bbaf 14bc 0000 0000
00000010: 0000 0000 5688 beba 0000 0000 e024 2037
00000020: ab17 513a 0000 0000 a69a 2f3b 22f7 0d3c
00000030: 6577 23b7 e6b2 dc34 d526 223c 54c5 bb3b
00000040: 3d05 aa3a 10e8 23bc 0000 0000 dfee 1e3c
00000050: a416 3fb6 0000 0000 3d00 3bb6 0000 0000
00000060: 0000 0000 0000 0000 6675 1abb 8920 beb9
00000070: 3130 4e3c 8e17 80b6 da7b 38bb 1f04 d6b8
00000080: 0000 0000 0000 0000 18f5 8237 0000 0000
00000090: ab50 0337 96d4 b83b 88d4 1bb6 0000 0000
000000a0: 0000 0000 b337 b43b 8c2d 863b 5d7f 073b
000000b0: 0000 0000 0000 0000 0000 0000 1227 13b7
000000c0: 3e9f babc 34b8 783c c0fd beb7 0000 0000
000000d0: 049c 633c c6bf e0bb 6bf5 3837 613e 233c
000000e0: 2917 7db8 0000 0000 762b 7e3b 4eca 9d3c
000000f0: 2c7d 7ebc 55f4 79b5 94aa 383c aa07 cab6

sequential_1/dense_1/MatMul f4 [64, 8]
0.04141852 0.0426953 0.1301882 -0.022215853 0.17391336 -0.17625466 0.03238754 0.16217321
0.048302833 -0.2770252 0.18209141 -0.21867694 -0.09709124 0.17591709 -0.13330317 0.053156767
0.26829356 -0.102709666 -0.059047498 -0.1039586 0.182401 -0.059063874 0.19445431 0.21114857
-0.1399858 -0.2297399 -0.020431548 0.117241174 0.078237 -0.21264848 0.18005243 -0.25584722
0.04324603 -0.094854906 -0.10378282 -0.23363853 0.0274975 -0.1711489 0.13524088 -0.16140932
-0.026929662 -0.062390335 0.08673448 0.14356889 0.037635602 0.18894301 0.2382482 -0.14742632
0.15713918 0.0052006543 -0.0783606 -0.18698895 -0.010697216 -0.19173583 0.066452 -0.23343053
-0.09205677 0.305227 -0.23770064 0.20423737 0.10291105 -0.11716769 -0.14053193 0.23115157
-0.054761183 -0.178194 -0.19767432 -0.21751551 0.22009382 -0.26800215 -0.01358472 0.21115963
0.05064395 -0.13728501 0.21010682 -0.22277999 -0.25834626 0.18636662 0.14751777 -0.28576043
-0.13336316 0.15112112 -0.27835542 0.23476906 -0.2331271 -0.076997735 -0.22061214 0.079406105
-0.14721121 0.27925745 0.09892111 0.05625795 -0.09963234 -0.2943795 0.009021698 -0.1995288
0.11270145 0.25283325 -0.13516423 0.1677043 0.23038971 0.30007285 -0.078107916 0.23053512
0.1567095 0.24148911 -0.19525383 -0.21334727 0.12082655 -0.012120751 0.092005774 0.280186
-0.2572171 0.092737816 0.22345902 -0.2227392 -0.05393501 -0.043461043 -0.18508771 -0.06728205
0.004898253 0.03632893 0.05656838 -0.012727005 -0.21918978 0.2755406 -0.2432884 0.2583719
0.1878082 0.04444408 -0.056402016 0.23126653 -0.26610097 0.2111924 0.01732827 0.20307972
0.13767605 -0.21223922 0.17923354 -0.08000658 -0.2388972 -0.1447477 -0.09275305 0.25861293
-0.14255078 -0.074144766 -0.13931324 0.16756502 -0.24918023 -0.057737038 -0.26606622 -0.13286614
0.06041818 -0.09228329 -0.23004454 -0.15049341 0.27733278 -0.056007843 -0.28140843 0.00069094246
-0.17089394 0.22381495 -0.11416961 0.07444537 0.23264901 0.16620997 -0.14684002 -0.12544502
0.26548266 -0.2293706 0.18676153 -0.1484289 -0.05762534 -0.15713319 -0.08104803 0.029818594
-0.26295263 0.12317902 -0.25422215 0.27939108 0.24457045 0.20405857 0.28186435 0.27850422
0.032491773 0.093462706 -0.166022 -0.111609995 -0.1974911 0.03181824 0.24267423 -0.06281932
-0.16028416 -0.11100344 -0.03863004 -0.017472744 -0.2768935 -0.088584706 -0.16165736 0.16739997
-0.2598645 -0.017306805 0.2121253 -0.2686284 -0.17339535 -0.23951073 -0.20369765 -0.2856983
-0.08586159 0.19335231 0.10761205 0.27796862 -0.20678939 -0.1957988 -0.1966653 -0.13159338
0.056987405 0.20683831 -0.21403624 -0.08894628 -0.15284155 -0.2334733 -0.08869282 0.01373362
0.22163288 -0.22684577 0.29311278 0.12708767 0.0869067 0.16352041 -0.17164303 0.13741687
-0.13206144 0.17816775 0.08360445 0.1793802 -0.004244581 0.15909158 0.055696156 0.06985102
0.03564468 -0.08560439 0.10948927 -0.1607269 -0.10262282 0.1329364 -0.2057964 0.050311934
0.17383388 -0.01516142 0.23473209 0.29580152 -0.1908088 -0.19161637 -0.048071485 -0.023862747
00000000: 77a6 293d 44e1 2e3d 0e50 053e 05fe b5bc
00000010: 5816 323e 1a7c 34be cca8 043d bc10 263e
00000020: 31d9 453d 3fd6 8dbe 2c76 3a3e d9ec 5fbe
00000030: c6d7 c6bd 9c23 343e a080 08be e9ba 593d
00000040: c65d 893e 7259 d2bd cadb 71bd 3fe8 d4bd
00000050: 54c7 3a3e f6ec 71bd 081f 473e 5537 583e
00000060: 7058 0fbe f040 6bbe 1060 a7bc 241c f03d
00000070: b83a a03d 86c0 59be aa5f 383e 68fe 82be
00000080: c022 313d 4a43 c2bd 168c d4bd f03e 6fbe
00000090: 7042 e13c a841 2fbe 967c 0a3e 7c48 25be
000000a0: 989b dcbc 028d 7fbd d9a1 b13d b903 133e
000000b0: ca27 1a3d 477a 413e 56f7 733e edf6 16be
000000c0: 18e9 203e 406a aa3b 867b a0bd 087a 3fbe
000000d0: 6043 2fbc 6656 44be fc17 883d 6a08 6fbe
000000e0: 4388 bcbd b746 9c3e cc67 73be 9a23 513e
000000f0: 07c3 d23d 9df5 efbd 9ae7 0fbe ffb2 6c3e
00000100: 434d 60bd 7d78 36be 236b 4abe 63bc 5ebe
00000110: 4660 613e 9437 89be 7292 5ebc 3b3a 583e
00000120: 0870 4f3d 7194 0cbe 3e26 573e 7020 64be
00000130: f645 84be e4d6 3e3e e60e 173e 314f 92be
00000140: 5a90 08be 7fbf 1a3e 9a84 8ebe 4d67 703e
00000150: dfb8 6ebe fdb0 9dbd 26e8 61be ab9f a23d
00000160: 89be 16be d5fa 8e3e 2797 ca3d bc6e 663d
00000170: 0a0c ccbd e9b8 96be becf 133c 4751 4cbe
00000180: 05d0 e63d 5c73 813e 7e68 0abe adba 2b3e
00000190: 48eb 6b3e 26a3 993e 0bf7 9fbd 6611 6c3e
000001a0: 7578 203e ec48 773e 9ff0 47be b577 5abe
000001b0: e973 f73d 1d96 46bc 866d bc3d 8a74 8f3e
000001c0: f6b1 83be 53ed bd3d 71d2 643e bf15 64be
000001d0: f5ea 5cbd 3504 32bd a287 3dbe 2ccb 89bd
000001e0: 8681 a03b a5cd 143d 3fb4 673d ee84 50bc
000001f0: 4973 60be a813 8d3e 9820 79be 5249 843e
00000200: cb50 403e ff0a 363d cd05 67bd 22d1 6c3e
00000210: 633e 88be d242 583e 04f4 8d3c 21f4 4f3e
00000220: f3fa 0c3e 3d55 59be ff88 373e 7dda a3bd
00000230: 78a1 74be be38 14be 50f5 bdbd ea68 843e
00000240: d5f8 11be 36d9 97bd 21a8 0ebe 2a96 2b3e
00000250: 1a29 7fbe ac7d 6cbd d539 88be 100e 08be
00000260: 0e79 773d 06ff bcbd cc90 6bbe f21a 1abe
00000270: 90fe 8d3e 7b68 65bd c414 90be 5d20 353a
00000280: d2fe 2ebe bf2f 653e c2d1 e9bd d076 983d
00000290: 8b3b 6e3e f232 2a3e 3b5d 16be a974 00be
000002a0: 58ed 873e 20e0 6abe 6a3e 3f3e bffd 17be
000002b0: 8c08 6cbd 86e7 20be 82fc a5bd 2046 f43c
000002c0: baa1 86be 4845 fc3d 6829 82be 590c 8f3e
000002d0: ad70 7a3e bbf4 503e 8650 903e 1b98 8e3e
000002e0: 1816 053d 6069 bf3d ac01 2abe c893 e4bd
000002f0: 1b3b 4abe d853 023d 987f 783e 6aa7 80bd
00000300: 8821 24be c655 e3bd 883a 1ebd 0023 8fbc
00000310: fcc4 8dbe e66b b5bd 8289 25be e66a 2b3e
00000320: f60c 85be 00c7 8dbc 6037 593e a989 89be
00000330: 8d8e 31be 4d42 75be 1e96 50be 0c47 92be
00000340: 34d8 afbd 26fe 453e b563 dc3d e751 8e3e
00000350: 99c0 53be 7b7f 48be a162 49be 6ac0 06be
00000360: a06b 693d 6ccd 533e 512c 5bbe 7829 b6bd
00000370: 7f82 1cbe a013 6fbe 95a4 b5bd fa02 613c
00000380: bbf3 623e 424a 68be e112 963e 4523 023e
00000390: 24fc b13d e571 273e 31c3 2fbe 02b7 0c3e
000003a0: 1d3b 07be 9b71 363e cf38 ab3d 71af 373e
000003b0: 2016 8bbb e7e8 223e a721 643d 0d0e 8f3d
000003c0: 2800 123d 5b51 afbd e93b e03d 9895 24be
000003d0: ea2b d2bd 7b20 083e 4bbc 52be e313 4e3d
000003e0: 8201 323e 9b67 78bc 9c5d 703e 4c73 973e
000003f0: 6263 43be 1537 44be 9be6 44bd cf7b c3bc
